Large_scale_UAV/MARL_QMIX/model/qmix_attention/1_qmix_net_params.pkl (torch, 127065 bytes, 29 tensors)

adain_w_1.0.weight f4 [64, 57]
000000 87 f4 89 3c 21 82 29 3d 87 ce 3a 3d 23 39 bd 3d
       0.016840233 0.041383866 0.045607116 0.092394136
000010 a4 6d 8d 3d 37 d6 16 3d ed 1e ee bd 17 fa 95 3c
       0.06905678 0.036825385 -0.116269924 0.018307729
000020 41 ae 6f bd 15 10 20 bc 02 27 53 3d 54 e1 2b 3c
       -0.05851579 -0.009769459 0.051550873 0.010490734
000030 78 9b ca bc 35 93 8a 3d ba e9 10 3c d7 be d9 bd
       -0.024732336 0.06766359 0.008844787 -0.10632103
000040 c9 e7 85 bc dd 90 df 3c ec af 9f 3d 1e cb 58 bd
       -0.016345875 0.027290756 0.07797226 -0.052928083
000050 88 46 ba bd 84 0b 69 bd 52 71 a6 bd f4 6b 70 3d
       -0.09095484 -0.056895748 -0.08127083 0.058696702
000060 54 f6 ee 3d 54 44 9f 3c f7 89 a2 bd e6 a9 0c 3d
       0.11668077 0.019441761 -0.07936471 0.034341715
000070 81 89 2e bd 4f 68 8f 3c 29 7d 8f 3d a4 c4 2f bc
       -0.042611603 0.017505793 0.07006294 -0.010728035
000080 90 26 1c 3d f2 ba 0c bb 40 1e a7 3c 3d 31 93 3d
       0.038122714 -0.0021473733 0.020400167 0.07187126
000090 64 eb af bd 0e 28 5c 3d 08 e1 af bd c1 a3 dc 3c
       -0.08589819 0.053749137 -0.08587843 0.026933553
0000a0 32 a7 38 3d 73 6d c8 bd 89 b2 fb 3d b5 81 ee bc
       0.045081325 -0.09786501 0.12289912 -0.029114584
0000b0 f4 b3 da 3d e7 99 ce bd 20 48 c7 3c 25 0e 01 3e
       0.106788546 -0.10087948 0.024326384 0.12603052
0000c0 cc e2 04 3c d3 b3 d0 bd 4d 3f c3 3d 34 6d 98 3d
       0.008110713 -0.10190549 0.09533558 0.07442704
0000d0 65 c3 58 3d 1f 09 c4 3c 89 a2 94 3d 03 95 dd 3d
       0.052920718 0.02393013 0.072575636 0.10819437
0000e0 28 a8 90 3d bf 48 8b bc 2f ab 1f 3d 74 d8 39 bd
       0.07063323 -0.017002461 0.038981613 -0.04537244
0000f0 42 49 36 3d cd a9 88 3d cb 1d 42 3d 2b 0d a6 bd
       0.044503458 0.06673012 0.047391694 -0.0810798
000100 f0 0e 8a bd 28 2c 02 bd 25 c6 5f bd 5b 10 96 bd
       -0.0674113 -0.031780392 -0.054632325 -0.07327338
000110 ba e0 da bc af 74 87 bd de 68 66 3d b4 34 4b 3d
       -0.026718486 -0.066140525 0.056252353 0.04961081
000120 c2 22 a6 bd a3 bb 74 bd 6d 8e 8f 3c f4 13 ed 3c
       -0.08112098 -0.059749257 0.017523969 0.028940178
000130 e6 63 a8 bd 17 cd 8a bb 3d ed 90 bd 86 82 75 bd
       -0.08222179 -0.0042358744 -0.070764996 -0.05993893
000140 1c 04 08 3c 4b 43 c0 3b 86 5e a1 bc c6 ac d6 3c
       0.008301761 0.005867397 -0.019698393 0.026205432
000150 46 e8 51 bd d9 ec 1c bd a1 2c 04 3d 98 2e 9e 3b
       -0.051246904 -0.038311813 0.032269124 0.0048273318
000160 cc ba 07 3d bc 4c 28 bd 63 7d 47 bb cc 79 4d 3d
       0.033137128 -0.041088805 -0.0030439727 0.050164983
000170 30 19 02 bd de 0e 31 bd c4 e4 6c 3d 01 d2 24 3d
       -0.031762302 -0.04322707 0.057835355 0.040239338
000180 b7 05 3b bd c7 b4 ac bc 8c 3b e2 3d 14 d2 15 bd
       -0.045659747 -0.021082295 0.11046514 -0.0365773
000190 e0 88 a0 3d 4b bc a5 bc 74 d8 9f bd 3f 93 0c bd
       0.07838607 -0.020231387 -0.07804957 -0.034320112
0001a0 55 ec 83 bd 4c 23 ab bd b0 67 8b 3d 9d ce 0f 3d
       -0.06441561 -0.08356342 0.06806886 0.03510915
0001b0 79 99 56 bd 4e cf 2d bd 55 f5 28 bd 3b ee 30 3e
       -0.052392457 -0.04243403 -0.04124959 0.17278378
0001c0 28 b7 7c bd 25 52 0d be 11 1c 1d 3e 38 eb eb 3d
       -0.06169811 -0.13800867 0.15342738 0.11519474
0001d0 28 2f 60 bd 55 e7 b5 bc db b4 c0 3a e3 09 3d bd
       -0.05473247 -0.022205034 0.0014702337 -0.046152007
0001e0 e8 78 18 be cb 24 d0 3c c7 52 7f 3d 76 26 a5 3d
       -0.14889872 0.02540817 0.062334802 0.080639765
0001f0 6d 6c 67 be 05 9b 57 3d e2 79 d1 3c bd 44 f4 bd
       -0.22599955 0.052638073 0.025570814 -0.11927173
000200 a0 24 1b be 19 75 bf 3d 10 b7 19 bc 7c 1d c8 3d
       -0.1515069 0.093485065 -0.009382024 0.09771249
000210 70 c7 05 be 61 7d 3a 3c d0 a6 07 bc bc 66 14 3d
       -0.1306436 0.011382432 -0.008279517 0.036230788
000220 20 d9 14 bd 30 af 00 3d fe d2 82 3d 77 0d 8c 3d
       -0.03633988 0.03141707 0.063879 0.06838506
000230 33 4b b8 3c 62 e9 d5 3c c8 d9 34 bd 71 bb 24 be
       0.022496795 0.026112262 -0.044153005 -0.16087128
000240 b6 82 65 3d 74 a1 8c bd b3 4f a7 bd b1 77 b0 bc
       0.05603286 -0.06866732 -0.08169498 -0.021541448
000250 0e 9c 68 3c 30 f5 84 3d db 82 98 3d 99 22 3e 3a
       0.014197363 0.06492078 0.07446834 0.000725308
000260 30 cb 21 bd c5 d3 2d bd 9e a2 e6 bd d2 1b 99 3d
       -0.039500415 -0.042438287 -0.112614855 0.074760094
000270 69 b6 9c bd 60 1c a9 bd 71 da 0b be b2 c1 06 be
       -0.076519795 -0.08257365 -0.13657548 -0.13159826
000280 34 10 a1 bd e7 88 3d 3c a0 fe ef bd 3a c0 1b be
       -0.078644186 0.011568285 -0.11718488 -0.15210047
000290 59 0c ba 3d 61 f0 ae bd b4 f7 e1 3d b7 86 cc 3d
       0.090843864 -0.085419424 0.11033574 0.09986632
0002a0 46 dc 7a 3d a8 f7 19 3d ed ba c5 bd 93 20 ae 3b
       0.061245225 0.0375897 -0.09654794 0.0053139417
0002b0 86 f9 80 3c 0c 40 24 3d d8 3e b3 3c ce 75 8f 3b
       0.015743982 0.040100142 0.021880552 0.004378057
0002c0 40 74 a0 3d c3 3b 8d bd 78 59 a7 3d 4f 2d c1 3d
       0.07834673 -0.06896164 0.08171362 0.0943247
0002d0 69 8a 8a 3d 0e 06 86 bc 6e 87 98 3d a3 d3 ef bb
       0.06764681 -0.016360309 0.07447706 -0.0073189302
0002e0 2d d3 d2 3b c1 fe 00 3d 8f ab 3e 3d d9 25 e1 bd
       0.0064338655 0.031492952 0.04655033 -0.10993547
0002f0 c4 e8 1a bd b3 bb 0e 3c 30 38 f4 3d 01 d7 a2 3d
       -0.03781964 0.008711743 0.119247794 0.07951165
000300 b0 53 83 bd 61 a7 38 3c 02 f0 94 bd d2 5f a7 3d
       -0.064124465 0.011270375 -0.0727234 0.08172573
000310 1b 90 7a ba 3b 69 9d 3d a3 76 5c 3d d7 42 b3 bd
       -0.00095582166 0.07686087 0.05382408 -0.08752983
000320 3d 85 9c 3d 96 0a bd bb f7 7e e7 3d fd 4f 83 bc
       0.07642601 -0.005769084 0.113035135 -0.016029352
000330 22 7a c8 bd b6 3f ab bd 07 fd dc b9 cd 9b e4 3d
       -0.0978892 -0.08361761 -0.0004215019 0.11162529
000340 42 73 a8 3d c4 4d b0 bd 57 4e df bc 98 a7 e8 3d
       0.08225109 -0.086085826 -0.027259035 0.11360091
000350 5f 52 8f 3d ee 46 7a 3d 3e 22 c0 3d e1 69 7f 3d
       0.06998133 0.0611028 0.09381531 0.062356833
000360 a9 b5 87 3d 39 a8 8e 3c 78 94 0f 3e ee 60 ed bd
       0.06626446 0.0174142 0.1402148 -0.115907535
000370 d2 95 0c 3e b9 30 4c 3d ae cd bd bd aa 88 de 3c
       0.13729027 0.049851153 -0.09267746 0.027164776
000380 1f ed 5d 3c 10 92 8f bd 56 53 22 bd 8f bb da 3d
       0.013545304 -0.07010281 -0.039630257 0.10680305
000390 14 7e 12 3e 67 a6 0a 3d 3e 9f 3c 3c 4d 7e 27 3c
       0.14305907 0.0338501 0.011512576 0.010222984
0003a0 f9 43 3f bd 61 62 bb bd 44 39 8f 3d 9e fa e3 3c
       -0.046695683 -0.09149624 0.069933444 0.027829465
0003b0 db 64 95 3d 07 02 d9 38 30 c1 ca 3d 93 df 48 3c
       0.07294627 0.00010347744 0.09900129 0.0122603355
0003c0 b5 a3 59 3d 76 f3 bd 3d 66 be c3 3d 34 81 c3 3c
       0.05313464 0.09274952 0.095578 0.02386532
0003d0 db 0d 0c 3e 7d 31 0a 3d ce 9f e8 bc ef e1 d7 bc
       0.1367716 0.033738602 -0.028396513 -0.02635285
0003e0 53 6d 00 bd 97 67 9f bd 26 f4 29 3d 49 00 43 bd
       -0.03135426 -0.0778343 0.041492604 -0.047607694
0003f0 b4 05 9c bd 31 fe 84 3d 8f ee fd 3d 7f 0c f6 3d
       -0.07618275 0.06493796 0.12399017 0.12014102

adain_w_1.0.bias f4 [64]
000000 49 94 1c be 7d 58 66 3e b3 6d bb 3c 42 1a 11 be
       -0.15290941 0.22494693 0.022879457 -0.14170173
000010 a8 54 31 be 5b 47 77 3e b4 2c 1d bc a6 f2 42 3e
       -0.1731745 0.24148314 -0.009593178 0.19037876
000020 ef be b3 bd 93 39 4b 3e bd 81 5b bd 06 ba cd 3d
       -0.08776652 0.19846182 -0.053590525 0.10045247
000030 4d ce c2 3d fa ac 82 bd f2 75 2a 3c 95 85 c6 3d
       0.09512005 -0.06380649 0.010404097 0.096934475
000040 a6 55 1b 3e 38 6a e4 3d 90 15 f6 3d db 17 d8 bd
       0.15169391 0.11153072 0.120158315 -0.10551425
000050 02 25 40 3e 99 29 11 bd 85 04 21 3e 57 14 1e 3e
       0.18764117 -0.03544006 0.1572438 0.15437447
000060 d9 f0 a0 bd 3e 83 cc bd 7f 3e 4f 3e 59 ca 41 be
       -0.07858438 -0.0998597 0.20238684 -0.18924846
000070 af d0 8f 3d de 6c 11 be f0 38 76 3d 67 34 c1 3d
       0.07022225 -0.14201686 0.060112894 0.09433823
000080 c3 fb 14 3e 2f 5a 9f bd f7 7c 34 3e 0b 4a e7 bd
       0.14549164 -0.07780873 0.17625795 -0.112934195
000090 76 77 6f 3e d5 b7 13 3e 7d d1 b6 3d c9 5c c5 3d
       0.23385414 0.14425595 0.089266755 0.09636838
0000a0 f3 8f e8 3d 90 ad 55 3b 36 27 5b 3e 9b 60 99 bb
       0.11355581 0.0032604672 0.21401677 -0.0046807057
0000b0 ee e5 2c 3e 17 03 4b 3e c3 22 0a be 0c 90 5f 3e
       0.16884586 0.19825397 -0.13489823 0.21832293
0000c0 d2 17 ab 3d e3 7a a3 bd 78 4b 26 be cf 21 c0 3d
       0.08354153 -0.07982423 -0.16239727 0.093814485
0000d0 89 9a 98 3d 6b 84 32 3d 6d 73 5f 3d aa b1 22 3e
       0.0745135 0.043583315 0.054553438 0.15888086
0000e0 4a 07 32 bd e6 05 24 3e e2 c9 94 3d 4b e9 4d 3e
       -0.043463983 0.16017875 0.072650686 0.20108525
0000f0 3a ef 84 3d 25 26 17 3e d8 91 04 3e 68 b0 be 3d
       0.06490941 0.14760645 0.1294626 0.093109906

adain_w_1.2.weight f4 [128, 64]
000000 cb 2e c3 bd e9 1c 7e bd 35 8f ef 3c 4c c6 53 3d
       -0.095304094 -0.06203929 0.029243091 0.051702783
000010 69 ed 5e bd fd 0a 04 bd 44 3a e2 3c 4f a0 0a 3e
       -0.05442563 -0.03223704 0.027615674 0.13537715
000020 b7 f0 e5 bc 4b 85 26 bd 86 9b 07 3e 93 82 c8 3d
       -0.028068883 -0.04065446 0.13242921 0.0979053
000030 8c 88 5b bd 33 94 92 3d 89 a3 ed 3d 5c 0f 38 3d
       -0.053597018 0.07157173 0.116034575 0.044936523
000040 f3 4a 8e bd 23 29 cc bb f9 a3 bf 3d 00 fe c1 bd
       -0.06947889 -0.00623049 0.09357447 -0.09472275
000050 1d ed 82 bc 35 19 78 bd cf 48 7a bd 70 e5 5b 3c
       -0.015982205 -0.060570914 -0.061104592 0.013421401
000060 14 ce 49 3c e5 9a 50 3c 43 a8 6e bd d5 84 00 bd
       0.012317199 0.012732242 -0.058265936 -0.03137668
000070 7a 1d 83 bd ce 35 ab 3d 36 8c ac 3d 7d a5 be bd
       -0.064021066 0.08359872 0.084251806 -0.09308908
000080 61 bf cd 3d e2 a1 89 bc 1e b2 99 3d 48 b0 03 3d
       0.10046268 -0.016800825 0.07504676 0.032150537
000090 ac f8 db 3d 62 2b 93 bd 41 2d 8d bc 90 37 3d 3d
       0.1074079 -0.07186009 -0.017233493 0.046195567
0000a0 36 3b 91 bd ba 32 c7 bc f7 bc 47 bd 58 18 83 3d
       -0.07091372 -0.02431618 -0.048764195 0.064011276
0000b0 e8 de fe 3d 6e 9c e9 3d f9 58 e2 bd 40 bf d3 3d
       0.1244486 0.1140679 -0.110521264 0.103392124
0000c0 1f 55 a2 3d 72 f5 39 bb 0e 8b 06 bd 6e 67 5b bd
       0.07926392 -0.0028375057 -0.032847457 -0.053565435
0000d0 78 eb 09 3d 95 6a 64 3c 91 a7 d8 3d d8 45 76 3d
       0.033671826 0.013941427 0.10578836 0.060125202
0000e0 86 66 48 be da 54 2d bd a8 10 18 3d d9 c2 8f bc
       -0.1957036 -0.04231725 0.03712526 -0.017548965
0000f0 94 bd 92 3c cd ca ea 3c 9d b5 eb bc 61 e6 9b 3d
       0.017912664 0.028661156 -0.028773123 0.07612301
000100 eb a8 bf bd 94 fd 19 3d 41 a6 e9 3c c9 cc 9a bd
       -0.093583904 0.037595347 0.028521659 -0.07558591
000110 f8 23 b8 3d f0 83 68 3d 32 f9 ef 3d 68 26 df bd
       0.089912355 0.05676645 0.11717452 -0.10895997
000120 fe ec db bd b9 90 18 bd 4e a4 9d 3d 40 eb 92 bd
       -0.10738562 -0.037247393 0.07697354 -0.071737766
000130 96 67 29 bd 59 44 ff 3d b6 15 22 3e b6 fc aa 3c
       -0.041358553 0.12464208 0.15828595 0.020872455
000140 56 37 d0 bc 8b 68 de 3d 71 48 a1 bd de 08 cd 3d
       -0.025417011 0.10859784 -0.07875145 0.10011457
000150 78 86 b9 bd 73 00 ca bd 0d 86 91 3c a3 26 c8 bc
       -0.09058851 -0.09863367 0.017764116 -0.024432486
000160 ef 15 c8 bd fa 51 bd 3d 44 bb 9c 3d db 71 19 3d
       -0.097698085 0.092441514 0.076529056 0.037462097
000170 c4 26 fb bc ac 01 c0 bd 0d e0 55 bc 83 bd 8c 3d
       -0.030658133 -0.09375319 -0.013053906 0.06872084
000180 ef 90 dc bc 63 68 a8 3b 8e 31 b0 bd 48 4c e1 bb
       -0.026924578 0.005139397 -0.08603202 -0.0068755485
000190 69 27 97 3d e4 0d a6 bd 51 e3 4b bd f1 2d 64 3b
       0.07380564 -0.08108118 -0.049777333 0.0034817422
0001a0 23 41 9c bd 3c fd 63 3c 95 da ef bb de 9d 21 3d
       -0.07629611 0.013915356 -0.007319758 0.039457195
0001b0 3a b3 31 bd 88 ec 6d bd 5b 71 3e 3d 18 e8 be 3d
       -0.043383814 -0.058086902 0.046494823 0.09321612
0001c0 2b 9b a5 3d 6f a9 a6 3d 2a 34 15 3d 74 ac 9a bd
       0.080862366 0.08137786 0.0364267 -0.07552424
0001d0 1d c4 04 be b0 5d dc bd 63 45 be 3d bb 60 ab bc
       -0.12965436 -0.10760057 0.09290578 -0.020920148
0001e0 e2 e2 15 3d d3 6a 96 bd 64 75 57 3d 8c 31 ee 3a
       0.036593325 -0.07344594 0.052602187 0.0018172725
0001f0 58 c3 45 3d af aa 02 3d ff c2 85 3d b0 33 97 bd
       0.048281997 0.031901058 0.06531333 -0.073829055
000200 8f a8 a7 bc 96 7f 52 3d 61 4d 66 bd 8c e5 de bd
       -0.020466117 0.051391207 -0.056226138 -0.10883626
000210 9e ba b5 bd 12 d5 78 3d 7f a2 07 bd b5 fd b9 bc
       -0.08873485 0.060750075 -0.033113953 -0.022703985
000220 ea 62 f5 bc 28 b7 62 3d 78 35 17 3d 77 8f 54 3d
       -0.029954392 0.055350453 0.036916226 0.05189463
000230 a2 e8 1d bd f9 c5 76 bd 7f 3a 9d 3c 94 17 4a 3c
       -0.038551934 -0.060247395 0.019192932 0.012334723
000240 c1 5f 84 bc d3 7f 31 3d 16 a9 04 bd 53 70 b6 3c
       -0.01615894 0.043334793 -0.032387815 0.022270357
000250 06 3d d6 3c 46 6f 05 be 57 bf cf bc 99 dc 86 3d
       0.026152145 -0.13030729 -0.025359793 0.065850444
000260 c4 bd 57 bd 0d 18 68 bc ab 5f 22 3c a8 0e f7 3c
       -0.05267121 -0.01416589 0.009910504 0.030158356
000270 1c 37 cc 3d dd 57 c5 bd 91 a1 ae bb b6 c2 81 3d
       0.09971449 -0.09635899 -0.005329319 0.06335966
000280 12 9d 87 bd d6 cd e7 bd e3 34 57 3b ad 35 30 bd
       -0.06621756 -0.11318557 0.003283792 -0.04301994
000290 52 2c f2 bb 5b a7 9f bc e2 b3 33 3d c1 b5 df 3d
       -0.0073905373 -0.019488981 0.04387272 0.10923339
0002a0 8f 93 87 bd 60 96 fb bc 2c b9 fa 3d 2c c2 9a bd
       -0.066199414 -0.030711353 0.1224235 -0.075565666
0002b0 3f d1 fb bb 98 35 2d bd 69 fd 12 3d d6 b5 13 3d
       -0.007684856 -0.04228744 0.035886202 0.036062084
0002c0 59 7e 66 bd 45 d6 16 bd 86 ca 8e bc 3f 30 27 3d
       -0.05627284 -0.036825437 -0.017430555 0.040817495
0002d0 9e bd cd 3c 6c 1f a0 3a d6 ca 21 3a a5 7d 40 bd
       0.02511483 0.0012216396 0.00061718875 -0.046994824
0002e0 c8 f7 12 be 7c 44 1e bd 38 ab 64 3d bf 68 0a be
       -0.14352334 -0.03863953 0.05582735 -0.1351652
0002f0 2a da ad 3c 0f 8a a5 3d c6 93 49 3d 2a 33 48 3d
       0.021222193 0.08082973 0.049213193 0.04887692
000300 1a e6 53 b9 7e 3a 1b 3d 80 e7 04 3e 31 45 a1 bd
       -0.00020208248 0.03789758 0.12978935 -0.07874525
000310 01 1b f1 bd 28 78 6f 3d a6 94 97 3d fe 7e 94 3d
       -0.11772729 0.0584642 0.07401399 0.07250784
000320 5f 20 a3 3d 17 b4 9b bd 79 74 8d bd 93 73 bd 3d
       0.07965159 -0.07602709 -0.06906981 0.0925056
000330 60 1d c4 bb 6b d6 9f 3d 58 db 83 bd ba df df 3c
       -0.005984947 0.07804569 -0.06438321 0.02732836
000340 18 d2 41 bd 39 37 fb bc 64 60 89 bd a3 61 d8 bd
       -0.0473195 -0.03066598 -0.06707838 -0.10565498
000350 00 6f 69 bd 04 02 02 3e 91 dc eb 3c 37 80 74 bd
       -0.056990623 0.12696081 0.028791698 -0.059692588
000360 bf 52 03 3c cb 74 5b bc b2 bf 9d 3d 62 bb 8b 3b
       0.008015334 -0.013394545 0.077025786 0.004264281
000370 43 3c 79 3d 6b 13 c9 bc f6 8a 93 3d 7e 4e 8a bc
       0.060848486 -0.024545392 0.07204239 -0.016883131
000380 64 ee b5 bd 93 3f b7 3c de 9c 67 bd d8 5e 26 3e
       -0.0888336 0.022369182 -0.056546085 0.16247118
000390 a3 56 2c 3d a4 ca e7 3d 76 f3 91 3d 9e 5a 1b bd
       0.04207481 0.113179475 0.071265146 -0.037928216
0003a0 f4 69 b0 bd 44 e9 65 3d 14 a2 36 3d f4 e5 99 3c
       -0.08613959 0.056130663 0.044588163 0.018786408
0003b0 19 ee fa 3c 4f a2 bc 3d 28 05 a7 bd 1c b4 b8 3c
       0.030631112 0.092106454 -0.0815528 0.02254682
0003c0 73 a5 b2 bd 90 97 b3 bc 51 9d 9b 3d 7f f8 40 3c
       -0.08722963 -0.021922857 0.07598365 0.011777996
0003d0 2f 69 ed bd 0a 13 fa bb 04 e7 36 bd b4 f7 72 bd
       -0.11592328 -0.007631664 -0.044653907 -0.05931826
0003e0 58 4e 5b bd ed 9e 2b bd 5c 53 a0 bd 61 21 93 3d
       -0.05354151 -0.04189961 -0.078283995 0.07184101
0003f0 f6 6d c6 bd b7 77 2e 3d 54 f4 2a bd a2 8c 22 bd
       -0.09688942 0.042594638 -0.041736916 -0.0396849

adain_w_1.2.bias f4 [128]
000000 dc 34 27 3e a4 ce c1 bd fe 0a e6 3d 4b 84 1d 3e
       0.16328758 -0.09463242 0.11232565 0.15382497
000010 26 1a 2d 3d be d1 ae bd c0 24 2d 3e e4 c4 14 3e
       0.042261265 -0.08536099 0.1690855 0.14528233
000020 18 29 99 bd c3 23 26 3e 21 25 3c 3e 8b de 06 3e
       -0.07478541 0.1622458 0.18373539 0.13170831
000030 8f ef 7f bd 44 a9 43 be d3 05 12 3e 25 83 17 3e
       -0.06248432 -0.19107538 0.14260034 0.14796121
000040 35 bf 25 be 02 8c 85 3d 24 15 38 be 65 ad 04 3e
       -0.16186221 0.06520845 -0.17976815 0.1295677
000050 d8 00 d4 bd 38 f5 f1 bd 92 c9 0e 3e ec 39 83 3b
       -0.103517234 -0.1181435 0.1394408 0.0040047076
000060 dc ee a5 3d b1 a0 0b be 45 f2 28 be e8 72 2c 3e
       0.081021994 -0.13635518 -0.16498668 0.16840708
000070 74 12 1b 3e 02 4d bf bd a5 e3 2e bd 8a 74 e2 3d
       0.15143758 -0.0934086 -0.042697567 0.11057384
000080 39 be 9f 3d 86 cb cf 3d 59 83 09 bd a2 b0 27 3e
       0.07799954 0.10146241 -0.03357253 0.16375974
000090 8a 70 2b be 38 84 06 bc 8b 5b fe 3d 12 8f a9 bc
       -0.16742149 -0.008210234 0.12419804 -0.020698104
0000a0 72 88 3e be 47 fc 2b be 69 30 08 bd 46 b8 19 be
       -0.18606737 -0.16795455 -0.033249293 -0.15011701
0000b0 98 b7 63 be 53 7e 44 be 54 af 71 3d 0a 94 10 3e
       -0.22238004 -0.19188814 0.059005097 0.14118972
0000c0 9c 9e d3 3d fd 35 15 3e 93 f1 20 be 12 84 d0 3d
       0.10332987 0.14571376 -0.15717153 0.101814404
0000d0 0b b3 79 bb 27 87 89 3d 78 6f f6 bd 53 b8 0e be
       -0.0038101103 0.067152314 -0.1203298 -0.13937502
0000e0 10 57 ff 3d 1e ab 11 be 6c 24 00 3e 9f 78 12 3e
       0.12467778 -0.14225432 0.12513894 0.14303826
0000f0 ef 27 0a 3e 73 ee e9 bd 32 25 8f bd fd 6f 80 bd
       0.13491796 -0.11422434 -0.06989516 -0.0627136
000100 e0 19 1a 3e 2c d2 24 be 7b e5 22 bd 48 5e 0a 3e
       0.15048933 -0.16095799 -0.03976963 0.13512528
000110 c2 09 22 3e e9 6f 16 be d5 33 b7 bd 70 c4 fb 3d
       0.15824035 -0.14691128 -0.08945433 0.12293327
000120 93 2e 1a 3e 47 0e ee 3d 88 63 cb 3d 67 d0 bf 3d
       0.15056829 0.11623817 0.099310935 0.093659215
000130 71 12 1b 3e 5b 12 1f 3e b0 8b b3 3d 23 1c ac 3d
       0.15143754 0.15534346 0.08766878 0.08403804
000140 d4 0a fd bd 1a b4 23 be 13 72 ca bd 1c 89 c2 3d
       -0.12355581 -0.15986672 -0.09885039 0.09498808
000150 c2 8f f9 bd f9 3e 6e 3d ca e9 39 be 64 28 06 3e
       -0.12185623 0.058165524 -0.1815559 0.13101345
000160 e0 d4 ba 3d 8b f5 ca bd cf 82 d2 3c 30 09 15 3e
       0.09122634 -0.09910115 0.02569714 0.14554286
000170 91 b1 cf bd 5c c8 f4 bd 92 82 eb 3c e6 55 ba 3d
       -0.1014129 -0.11952278 0.028748784 0.09098415
000180 da 41 cc bd ae 2a c0 3d fa cc e8 bc 4c 35 d4 bd
       -0.09973498 0.093831405 -0.028418053 -0.10361728
000190 af c4 47 3e 56 65 4f bc 7e 35 0d 3e 1e 42 4a be
       0.19508623 -0.012658438 0.13789937 -0.19751784
0001a0 31 08 34 3e 49 61 be 3d dd 52 29 3e 27 1c 7c 3d
       0.1758125 0.092958994 0.16535516 0.061550286
0001b0 bc 9d 00 3e 7c 15 08 be 07 ae ee 3d 3b a9 34 3e
       0.12560171 -0.13289446 0.11654287 0.17642681
0001c0 d0 a5 33 3e ba 37 10 be 20 b2 4a 3e 8b 3d 2e be
       0.17543721 -0.14083758 0.19794512 -0.17015664
0001d0 2f ac 6c bd a5 f1 26 3e 7a 58 27 be 1e 96 2c 3e
       -0.057781395 0.16303118 -0.16342345 0.1685414
0001e0 7e f8 00 3e 21 f2 07 be de 85 28 be 7f 1f 56 3e
       0.12594792 -0.13275959 -0.16457316 0.20910452
0001f0 c8 71 1a bd 28 0c 17 3e 43 6d d8 bd 3e 20 cc 3d
       -0.037706167 0.14750731 -0.10567715 0.09967087

adain_w_final.0.weight f4 [64, 57]
000000 3f a5 d2 3d dd 2d ec 3d 77 b2 c8 bd 13 4d 06 3d
       0.102854244 0.11532185 -0.097996645 0.032788347
000010 80 cf c4 3d 32 7d 46 3c 98 e4 84 3d 01 aa 49 3d
       0.0960989 0.01211481 0.06488913 0.049234394
000020 c1 fc a9 bd 53 07 2e bd 60 8e 56 bb 77 99 06 3e
       -0.08300162 -0.042487454 -0.003273867 0.1314448
000030 f7 2e 23 bd cb 8a 07 bd 52 a1 1e bd 48 d8 14 3e
       -0.03983971 -0.033091348 -0.038728066 0.1453563
000040 23 b2 b6 bb 42 55 09 3d 08 c5 50 bd 5d d6 6d bd
       -0.005575435 0.033528574 -0.050969154 -0.05806576
000050 b2 4e 17 bd 30 bc b7 bd 4e 98 1e 3d 9c e6 40 bd
       -0.036940284 -0.08971441 0.038719468 -0.047094926
000060 f3 42 92 bc a1 40 30 be d5 59 84 bd 11 a3 49 3d
       -0.01785419 -0.17212154 -0.064624466 0.049227778
000070 d1 2b 0e be a1 ef 15 3c 21 1e 46 bd 1d 54 1b bd
       -0.13883902 0.00915137 -0.048368577 -0.037922014
000080 fc 44 ab 3a a3 09 30 3d f4 ae f5 3c 82 57 e8 3d
       0.0013066824 0.04297794 0.02999065 0.11344816
000090 b1 df c2 bc d3 f6 ad bd 4b 39 f2 bc 7a 31 87 3d
       -0.023788305 -0.084943436 -0.029568335 0.06601234
0000a0 1b 7e 72 bd 92 97 9d 3c 95 bf 05 bc 9f dd 11 be
       -0.059202295 0.019237313 -0.0081633525 -0.14244698
0000b0 09 c3 e5 3d d7 d6 70 bd 82 dc 6d 3c e1 a4 dc bd
       0.11218841 -0.058798637 0.014517905 -0.10773636
0000c0 ae fe 9d 3d 89 75 9b 3d aa 34 e9 3d 5d f6 81 3d
       0.07714592 0.075907774 0.11386998 0.06345818
0000d0 d6 d5 2b bc 91 92 7c be 21 22 ae bc 00 f5 1f be
       -0.010487994 -0.24665286 -0.021256508 -0.15620804
0000e0 99 df d3 3c 36 7c 1f be e6 8e 0f be e6 06 0a 3d
       0.025863456 -0.15574726 -0.14019355 0.033697985
0000f0 cc 33 16 bd d6 f3 6c bd f7 8d a8 3d c1 7e 9b bd
       -0.03667049 -0.057849728 0.08230203 -0.07592536
000100 1d 61 0b bd a4 6b 08 3e 62 ad 80 3d 4c b1 cc 3d
       -0.03402816 0.13322312 0.0628307 0.09994754
000110 fe cc 16 be 76 9f 81 bd 19 fb 30 bc 34 a7 5e 3d
       -0.14726636 -0.06329243 -0.010802054 0.054358676
000120 a7 a0 01 3d 4a 2b e2 3d bc b1 9e 3d fd 56 bd 3c
       0.03164735 0.11043413 0.07748744 0.023112768
000130 a5 02 e2 bd 87 52 6b bc 30 49 13 be a6 a6 51 bc
       -0.11035661 -0.014362938 -0.14383388 -0.01279608
000140 bf 06 6a 3d 89 77 26 bb a5 f3 a2 bd 2c 33 f2 3d
       0.05713534 -0.0025400838 -0.07956628 0.118261665
000150 c1 6c 06 be 37 a5 a1 bc 02 da 87 3d 2e 2a e8 bb
       -0.13127424 -0.0197321 0.066333786 -0.0070851063
000160 0b 0c f0 3c e2 4a ef 3d 53 38 44 bd b5 af e5 3c
       0.029302618 0.11684205 -0.047905277 0.028037885
000170 6c fb 27 bd 81 09 82 3b 03 89 fd bd 97 0e 0b be
       -0.04101126 0.003968418 -0.123796485 -0.13579784
000180 69 2a 68 bc 7a ac 5c 3d 5e 4e bb 3d 5a 94 ea bd
       -0.014170268 0.053875424 0.09145807 -0.11454077
000190 47 a5 40 3c 64 94 ee bd 07 5e 05 3d 05 43 41 3d
       0.011758155 -0.11649397 0.032560375 0.047183055
0001a0 8d 44 f4 bd 4c cb fa bd 31 ff ea bd 32 0d c2 bc
       -0.119271375 -0.12245807 -0.11474455 -0.023687933
0001b0 29 bb 02 3e e9 cb 5b 3d b5 39 a4 3d 8c 6c 97 bd
       0.12766708 0.05366126 0.08018819 -0.073937505
0001c0 32 60 71 3c 42 c8 09 ba f1 95 3c bd e7 ab 34 3d
       0.014732407 -0.0005255976 -0.046041433 0.04410925
0001d0 12 f3 60 3c d7 9e 8d 3c e4 ad 0c 3d 82 26 09 bd
       0.0137298275 0.017287655 0.034345523 -0.03348399
0001e0 90 03 bc 3a 79 b3 e1 bb f7 8e e6 3d a1 d3 a0 3d
       0.0014344323 -0.00688785 0.11257737 0.07852865
0001f0 51 4d b8 3b 62 d2 4a 3c 90 37 9b bd d4 35 bf bd
       0.005624451 0.012379261 -0.07578957 -0.09336439
000200 52 d5 12 3d ce d0 b1 bc d3 f0 e0 3c 94 4f 23 3d
       0.03584797 -0.021706011 0.027458584 0.039870813
000210 64 b8 47 bd 25 3c b3 3d 45 09 d7 bd 47 e2 db bd
       -0.048759833 0.08751706 -0.10499815 -0.10736518
000220 01 0e 9a bc 41 d1 c5 3b d2 34 d8 3d 7b e4 6e bd
       -0.018805506 0.006036908 0.1055695 -0.058323365
000230 3b db 40 3d b5 c9 6e bc 04 06 9e bc 8e 01 e1 3d
       0.047084074 -0.014574458 -0.019289978 0.10986625
000240 ca b6 e0 bc dd dd e6 bd 5a 2d 9b bd e1 5c 68 3d
       -0.02743091 -0.11272786 -0.075770095 0.0567292
000250 3c 8c ad 3d 67 8d 10 be de 90 1a bc 9f f6 35 3d
       0.08474013 -0.1411644 -0.009433953 0.04442465
000260 5f a0 61 3d 42 77 35 bc fa 9e f7 3c 94 76 40 3d
       0.055084582 -0.011075797 0.030227173 0.046988085
000270 45 9e 9b bd e7 5b d4 bd b2 e8 ba 3d fe 15 f1 3d
       -0.07598547 -0.103690915 0.09126414 0.11771773
000280 9c 92 9a bc a9 eb e9 bd e6 50 86 3c 97 17 07 be
       -0.018868737 -0.11421902 0.016395997 -0.13192593
000290 e3 9a a9 3c 23 4a f8 bd c0 51 93 3d 50 15 c0 bd
       0.020703739 -0.121235155 0.07193327 -0.09379065
0002a0 7c d4 02 be 60 96 f3 3c b3 1c 2c 3e 4e 4c 02 bd
       -0.12776369 0.02973479 0.16807823 -0.03181105
0002b0 6a 93 b4 3d 58 2b 79 bc 33 ae ac bd b0 6c f0 bc
       0.088171795 -0.015208088 -0.08431663 -0.029348701
0002c0 89 f2 b6 bd 7a 78 5b 3d 2f af 49 bd 91 30 b7 3d
       -0.08932979 0.053581692 -0.049239334 0.0894481
0002d0 70 f3 c4 bd ba 2e 58 3c 58 d0 b1 3b f4 09 19 3e
       -0.096167445 0.013194734 0.005426448 0.14945203
0002e0 93 06 a3 3b 19 c9 79 bd 4e a9 9c bb 32 62 0c 3e
       0.004975149 -0.060982797 -0.004780925 0.13709334
0002f0 1c aa 80 bd 23 e6 03 bd f7 83 f9 3d 14 30 82 3d
       -0.06282446 -0.032201897 0.121833734 0.063568264
000300 0d 41 d7 bd a9 96 94 3d 04 5a f2 3c cb 6f 24 bb
       -0.10510454 0.07255299 0.029583938 -0.0025091048
000310 c2 fd 9d bd f6 99 8c 3d cf 04 ad 3d 0a 1c 61 bd
       -0.07714416 0.06865303 0.08448183 -0.05495838
000320 61 c7 1e bc 33 26 99 bd 41 55 1b 3d 40 26 7c 3a
       -0.00969109 -0.07477989 0.0379231 0.0009618737
000330 fc 48 a6 bd 98 f5 f3 3d 25 bf 02 3e c4 ef fa 3d
       -0.081193894 0.11912078 0.12768228 0.12252763
000340 9d 80 e4 3d ae ec b6 bd fc 82 77 3d f4 b3 b2 bd
       0.111573435 -0.08931862 0.06042765 -0.087257296
000350 5f 27 52 3d 38 61 22 bc e9 b4 25 3e bc f5 80 bd
       0.05130708 -0.009910874 0.16182293 -0.0629687
000360 75 30 39 3d 58 e1 2c bd 98 fc 6a bd 15 2b 99 bd
       0.045212228 -0.042207092 -0.0573698 -0.0747892
000370 f5 a6 16 3c 69 59 c4 bd 63 fb a3 bd 46 a5 15 3e
       0.009195079 -0.09587366 -0.080069326 0.14613828
000380 1e b2 d2 3d 4d 2a 1e bb 62 28 2d 3d 95 d8 3f bd
       0.102878794 -0.00241341 0.04227484 -0.046837408
000390 d5 11 34 bd 0a bd 2a bd 71 8b 15 be 72 45 42 bd
       -0.04396232 -0.041684188 -0.14603974 -0.04742951
0003a0 6e 9a 97 bd 88 04 dd 3d 65 ee 63 3d d1 73 58 bd
       -0.07402502 0.1079188 0.055647273 -0.052844826
0003b0 75 d2 fe 3c 84 6b cc 3d 8b 5e 22 bc ea f4 f8 3d
       0.031106213 0.099814445 -0.009910236 0.12156089
0003c0 74 76 7c bc 5b 6a 1a 3c 7e 8e 31 3d 56 08 f2 bd
       -0.015409101 0.009424771 0.04334878 -0.11817996
0003d0 01 56 48 3d 58 ec d5 3d 2a 7f 43 3c 76 73 fa bb
       0.048910145 0.104454696 0.011932174 -0.0076431585
0003e0 19 8c 9e bd 65 f0 9a 3c b4 bd c7 3c 1a 71 56 bd
       -0.07741565 0.018913457 0.02438245 -0.052353956
0003f0 d5 ef 92 ba 0a 31 64 bd f7 84 d3 bd 87 c1 fc 3d
       -0.0011210392 -0.05571083 -0.103280954 0.123416

adain_w_final.0.bias f4 [64]
000000 b7 9f 9c bd 84 42 dc 3d 0a 5a cd 3d e6 1d 38 3e
       -0.07647651 0.10754874 0.10026939 0.17980155
000010 46 b6 44 bd 0b 87 e8 3d e7 b8 f0 3d 60 dd 05 3e
       -0.048025392 0.113538824 0.11754017 0.13072729
000020 e6 88 32 3e c4 2c 2b 3d f0 2c 0c 3e 8c a2 ee 3d
       0.17435035 0.04179074 0.13689017 0.11652097
000030 04 9a 57 3e f4 33 7b bd f6 3b 0f 3e 95 63 24 be
       0.21054846 -0.061328843 0.13987717 -0.16053613
000040 54 79 cb 3c 4e b9 8c 3d 4d 14 2c 3e 2f d9 20 3e
       0.024838127 0.068712816 0.16804619 0.15707849
000050 57 7d 63 3e 8c ce 08 be 03 17 63 3c 9c 5c 70 3e
       0.22215782 -0.13360041 0.013860467 0.23472828
000060 72 37 fc 3d fa 2d f9 3d d3 3a 60 3e 01 b7 cf 3c
       0.12315263 0.121669725 0.2189744 0.025355818
000070 7b ca 33 be 25 dd 01 be b3 7d 43 3e 15 58 81 3e
       -0.17557709 -0.12682016 0.19090919 0.25262514
000080 2f 94 c0 3d 92 a2 53 3e aa 50 c0 3c 78 03 42 3e
       0.09403264 0.20667484 0.023475964 0.18946636
000090 50 9e f8 3d 97 21 3f 3e 14 db 37 3e ca dd ca 3d
       0.12139571 0.18665157 0.17954665 0.09905584
0000a0 de 9f a6 bd f0 a4 0a 3e cd ae 30 be 45 95 6a bc
       -0.08135961 0.13539481 -0.17254181 -0.014317815
0000b0 cc f7 bb 3d 7c 4d 93 3d 5f b1 07 3c bf 9a cd bd
       0.09178123 0.07192513 0.008282035 -0.10039281
0000c0 15 a8 92 bd 75 60 96 3c 63 53 d2 bd 12 c1 f2 3c
       -0.07160965 0.018356541 -0.10269811 0.029633079
0000d0 ff 59 3a 3e 01 2e 6f 3e 79 ac d6 3d a9 18 38 bb
       0.18198393 0.23357393 0.10482115 -0.002809087
0000e0 6d 6f 7c 3e 79 6b 03 be 50 19 0f bd 2f 88 e9 3d
       0.2465188 -0.12833966 -0.03493625 0.11402928
0000f0 a5 4d 25 be fa 59 17 be 27 3f 21 be 16 0a 37 be
       -0.161429 -0.14780417 -0.15746747 -0.17874941

adain_w_final.2.weight f4 [32, 64]
000000 28 61 f1 bd 64 22 92 bd 41 fc 9d bd 5b 97 29 3d
       -0.11786109 -0.07135466 -0.07714129 0.04140411
000010 f9 1c b2 3c 43 81 4f 3c 65 aa 67 3d 8c 85 ce bb
       0.02174233 0.012665096 0.056558985 -0.006302541
000020 33 b7 82 bd 4c 8e ca 3b 4e 76 d7 bc 43 1c b7 3d
       -0.06382599 0.006181514 -0.02630153 0.08940937
000030 73 b1 b1 bd 90 4a ef 3c c0 c1 87 3d 42 c1 4f 3d
       -0.08676424 0.029210359 0.06628752 0.050721414
000040 4e c8 87 bd c5 c9 df bd d4 8b 96 3d d3 bf d9 bd
       -0.06630002 -0.10927156 0.07350889 -0.10632291
000050 b8 e7 b7 3d 45 98 e2 bd 83 ab 7f 3d 4a 09 02 be
       0.08979744 -0.11064199 0.062419426 -0.12698856
000060 7b a6 c3 bd 17 62 53 bd 2e cd 2b bc 1c 0b e0 bd
       -0.09553238 -0.051607218 -0.01048593 -0.10939619
000070 e6 11 c4 3c f4 88 31 bd bc 16 82 3d 63 7c c4 bd
       0.023934316 -0.0433435 0.063519925 -0.095940374
000080 38 b9 28 3d c1 8d db 3c 3d ed a7 3d 5f 93 30 be
       0.041192263 0.026800992 0.081995465 -0.17243718
000090 3d c2 83 bd d8 02 af bc f6 d1 b5 bc b5 d2 d6 bd
       -0.064335324 -0.02136366 -0.022194844 -0.10489408
0000a0 1e 32 99 bc 31 6a 0b bd fb b5 11 3e d4 58 55 bd
       -0.018700656 -0.03403682 0.14229576 -0.052086666
0000b0 3f cf 0b 3d 2c a7 9a bd ec c1 ab bd d6 5a a9 bd
       0.034133192 -0.07551417 -0.08386597 -0.08269279
0000c0 0e 2a bc 3d d6 1b aa bd 80 ae 3f bd 1f 8d a0 bb
       0.09187709 -0.083060905 -0.046797276 -0.0048996354
0000d0 11 92 87 bd 49 97 29 be 1b 7f f9 bd 4d ae 76 3d
       -0.06619657 -0.16561617 -0.121824466 0.06022482
0000e0 a1 20 4a be 34 26 43 ba 41 aa b3 3d b2 94 3e bd
       -0.1973901 -0.00074443524 0.08772708 -0.046528526
0000f0 b1 18 7c 3d fa 3c 22 3e 92 e4 c2 3c 84 26 12 3c
       0.061546985 0.15843573 0.023790631 0.008920316
000100 2f 29 77 ba 87 37 e0 3c 3c 2f a2 bd 8b 04 d1 3d
       -0.0009428439 0.027370228 -0.079191655 0.10205945
000110 2d 2d 83 3c ec 36 5b 3d 38 b1 31 bd d7 80 d8 3d
       0.016012752 0.053519174 -0.0433819 0.10571449
000120 f6 20 f2 bc 11 ab 70 3d 5b 1b 0b 3e d5 94 e8 3c
       -0.029556733 0.05875689 0.13584654 0.028391281
000130 46 3c 86 bd b6 4e ac 3c fd 13 69 bd fb 2b 84 3d
       -0.06554465 0.021033626 -0.056903828 0.06453701
000140 1e 6b e4 bd 50 9f 99 3c 59 2e f6 3d 15 e2 3a 3c
       -0.111532435 0.018752724 0.12020559 0.011406441
000150 a4 35 0e 3e bf c4 9f bd 19 ba 58 bd 40 e7 1c 3e
       0.1388765 -0.07801198 -0.05291185 0.1532259
000160 9b 80 2e 3e 16 e7 70 3c 0d 68 06 3e 6f 7c 31 3d
       0.17041247 0.014703533 0.1312563 0.04333156
000170 f9 d7 a0 bd 16 a1 bd 3d 9f 08 3b 3d d6 ae 1d 3d
       -0.078536935 0.0925924 0.04566252 0.038496815
000180 2f 1f 1a bd bd bb 45 3d 5c 64 58 3d 8d 1f 11 3d
       -0.037627395 0.048274744 0.052830085 0.03543048
000190 f0 ec 47 3d 14 eb 7b bd 30 e8 25 3e d3 f6 4d 3d
       0.048809946 -0.061503485 0.16201854 0.050284218
0001a0 6a 58 0c be 2f ed 06 3e a0 76 0d be 80 ce 7c bc
       -0.13705602 0.13176416 -0.13814783 -0.015430093
0001b0 9b b1 0e 3e 49 68 33 3d 2b b2 d2 3d d3 b8 33 3d
       0.13934939 0.043800626 0.10287889 0.043877434
0001c0 91 e4 d8 bc 79 4e ca 3d 6b ff d5 ba 5f ba dd 3c
       -0.026476176 0.09878249 -0.0016326731 0.027066408
0001d0 1e b2 05 bd a0 0b 68 3d 3f 3a 61 3d b0 3d 80 bc
       -0.03264057 0.05665171 0.05498719 -0.015654415
0001e0 74 2d 07 3e 4c fd 0e bd 9e 9c fb 3d 86 ee 08 3d
       0.13200933 -0.03490953 0.12285732 0.0334306
0001f0 cc b2 3e 3d 6b a8 23 be 7e 43 5e 3d f8 7f 36 3d
       0.046557233 -0.15982215 0.054263584 0.044555634
000200 88 ab 96 3d 12 c0 95 3d f0 1e 12 be 76 40 a8 3c
       0.07356936 0.07312025 -0.14269614 0.02053855
000210 89 aa 8b bd af 7d 43 3d 5b 4d f2 bd fe 89 d9 bb
       -0.068196364 0.047727283 -0.11831161 -0.0066387644
000220 a0 a9 94 bd bc cd d5 bd 47 f0 a5 bc ca 99 c1 bd
       -0.07258916 -0.10439631 -0.020256175 -0.09453161
000230 6f c5 0d 3d 93 cf 8b bd 16 bf 97 bd 49 d9 8f bd
       0.034612115 -0.06826701 -0.074094936 -0.07023866
000240 84 2b 05 bd a9 21 68 3b 1d 4c 16 bd d1 8e 2b bd
       -0.032512203 0.0035420454 -0.03669368 -0.041884247
000250 ea 66 19 be b9 03 74 3d d2 58 e9 3b 0b 92 12 be
       -0.14980665 0.059573863 0.007121184 -0.14313523
000260 e2 67 53 3d c2 62 bc bd 85 d2 34 be ed 53 84 3a
       0.051612742 -0.09198524 -0.17658432 0.0010095813
000270 13 20 1b 3b a0 97 ea bd 1e 15 16 be a7 00 9d 3b
       0.002367024 -0.114547014 -0.14656493 0.0047913375
000280 c6 1b 03 be 2c fb 9a 3d 51 c4 ff bd 79 c6 eb bc
       -0.12803563 0.075674385 -0.12488616 -0.028781163
000290 8b 78 86 bd 54 cd 8f 3d fb 2e a1 bc 4e c3 56 3d
       -0.065659605 0.07021585 -0.019675722 0.05243235
0002a0 64 ae ae 3d 97 4b 0d bd ff 6f 44 3c 78 f3 ed bd
       0.08529356 -0.034495916 0.011989593 -0.116187036
0002b0 6e 6a ec 3c c0 05 b2 bb a7 10 06 be f5 41 be 3d
       0.028859343 -0.0054328144 -0.1309229 0.09289924
0002c0 05 2f 66 bd cb 22 eb 3c cf 59 37 3d be 5b 2e 3d
       -0.056197185 0.028703114 0.044763383 0.04256796
0002d0 93 2a 29 be 41 29 d0 3c 07 7b 89 bd 58 6e 08 be
       -0.16520147 0.025410296 -0.06712919 -0.13323343
0002e0 da 05 9b bd cc 8f 83 3c 8e 93 fd 3c 05 54 fb 3c
       -0.075694755 0.016059779 0.030954149 0.030679712
0002f0 ed 94 3a bd 47 27 15 3e d4 35 59 3d c0 75 9d 3d
       -0.045552183 0.14565764 0.05302985 0.07688475
000300 ae 8b 33 bc 61 56 ed 3d aa fc 31 bd 2c 72 83 3c
       -0.010958595 0.11588741 -0.04345385 0.016045652
000310 16 bd 4e 3c 2e e4 da bd 87 00 ae bd 4a 1a 93 bd
       0.012618324 -0.10688053 -0.08496194 -0.071827486
000320 aa 64 56 3c 18 ac 0a 3c 57 ee 43 3e a0 4e a6 bd
       0.013085524 0.008463882 0.19133888 -0.08120465
000330 9f e6 45 bd 52 65 b8 bc 68 59 56 bd 44 bb 20 3d
       -0.04831564 -0.02250925 -0.05233136 0.03924109
000340 53 8e 00 bc 93 e2 8f bb d2 15 e3 3d e1 e1 1c 3e
       -0.007846433 -0.0043910234 0.11088146 0.15320541
000350 b8 20 15 3b 50 a8 d8 bc 3f c1 b5 bd 05 5e ff 3d
       0.0022755098 -0.026447445 -0.088747494 0.12469105
000360 99 0e ae bd 2c 80 d3 bd 99 e8 26 3e b0 f3 57 3c
       -0.08498878 -0.10327181 0.16299666 0.013180658
000370 a3 25 c0 bd 12 d5 f5 bd f0 51 85 3d dd 2c 2c 3d
       -0.09382179 -0.120035306 0.06509769 0.042034972
000380 b5 62 1f 3d 27 cf 5d 3d 2e 9d ec 3d c7 4d 0a 3e
       0.038912494 0.054152634 0.11553417 0.13506232
000390 ba fb 9c bb 50 96 ea 3d 16 7c d4 bc 97 5d cf ba
       -0.0047907503 0.11454451 -0.025938075 -0.0015820739
0003a0 e7 a9 1d 3d 3e 91 c8 3d 9d d9 70 bc ad 32 65 3d
       0.03849211 0.09793328 -0.014700321 0.05595653
0003b0 0f 91 da 3d 24 91 69 bd 12 b4 57 bd c1 2e 94 3c
       0.10672199 -0.057023183 -0.052661963 0.0180887
0003c0 8c 7e 4c 3d e1 76 96 3d 74 3a 9c bd 8f 54 90 bd
       0.049925372 0.07346893 -0.076283365 -0.07047378
0003d0 4b 1f 32 3d e6 cc 29 3e 1b bc 2f bd 51 c5 47 bd
       0.043486875 0.16582069 -0.042904 -0.04877216
0003e0 57 97 ef 3d cc 6a a8 3d 52 7a 2d 3d 0a 33 f6 3d
       0.11698788 0.08223495 0.042352982 0.12021454
0003f0 08 36 e1 bd f5 3b 40 3c 46 1a e2 bd 61 84 ca bd
       -0.10996634 0.011733045 -0.110401675 -0.098885305

adain_w_final.2.bias f4 [32]
000000 30 7b 59 be 84 77 4e 3e 9a 98 3e be 32 cc 81 3d
       -0.21238399 0.20162779 -0.186129 0.06337775
000010 ce 5b eb bd 2b 37 eb 3d 10 6a b4 bd 5e 38 64 be
       -0.1149212 0.11485132 -0.08809292 -0.22287127
000020 8d 33 51 3e d8 68 6e 3e 04 ee 62 3d 0e ab 0b 3e
       0.20429821 0.23282182 0.05540277 0.13639471
000030 40 75 35 be fa cf 59 3e 50 77 5c be aa 38 a2 bd
       -0.17720509 0.21270743 -0.21529889 -0.07920964
000040 d9 79 f7 bd 56 6e 09 3e 64 99 14 3e c7 04 c8 3d
       -0.120837875 0.13420996 0.14511639 0.09766536
000050 4f 32 51 be 0a 5f 54 be e9 a6 19 3e 27 1e 4b be
       -0.20429347 -0.2073938 0.15005077 -0.19835721
000060 bf d8 67 3e 9b a4 3b 3d 86 4a 9b bd 38 cc 60 3e
       0.22641276 0.045811277 -0.075825736 0.21952903
000070 72 ea 5f 3e 5a f7 55 3e 04 02 7c be b3 31 f8 3d
       0.21866778 0.20895138 -0.24610144 0.121188544

hyper_b_1.weight f4 [32, 57]
000000 72 7e 67 bd 90 7f b1 bc 5c d8 04 be 87 85 f7 3c
       -0.056517072 -0.021667272 -0.1297316 0.030215038
000010 50 e1 a9 3c a4 bb f5 bd d7 0c 47 3c 52 66 c0 3c
       0.02073732 -0.1199868 0.012149057 0.02348629
000020 30 0c da 3d 40 00 25 3c cb d1 86 bd f6 aa cf bd
       0.10646856 0.01007086 -0.065829836 -0.1014003
000030 ae 4c 29 3d f3 98 17 3d 1a ce e9 bd 0c 06 4f bd
       0.041332893 0.037011098 -0.11416264 -0.050542876
000040 cb 8a 40 3d d9 1f dd bd c9 b4 9f bd 1b dc e6 bd
       0.047007363 -0.1079709 -0.07798154 -0.112724505
000050 14 a8 18 be 72 29 64 3d ec 1d 12 bd 7c 32 24 be
       -0.14907867 0.055703588 -0.035673067 -0.16034883
000060 a1 38 12 3d 5f 74 0d be eb 77 ba 3d 1b 3d f5 3a
       0.035698537 -0.13813923 0.09104904 0.0018710227
000070 8d 33 c6 bd 1f c6 3a bd 4d a0 a5 3c bc b3 9a bd
       -0.09677801 -0.0455991 0.020218039 -0.07553813
000080 d7 7e 8e bd 45 fb 8c bc 2f d5 ac 3c bb 6c db bd
       -0.069577865 -0.017209658 0.021097748 -0.10714098
000090 c8 82 ff 3c 73 4e 98 3d 1c e5 a3 ba e8 29 fe 3b
       0.031190291 0.07436838 -0.0012504193 0.0077564605
0000a0 d5 86 01 be 7a 95 48 3c c0 4e f6 bd 29 4b 20 be
       -0.1264909 0.012242669 -0.12026739 -0.15653671
0000b0 09 80 55 3d 39 37 04 be 2e 43 f6 bc 2c f4 f7 bd
       0.052124057 -0.12911691 -0.03006133 -0.12107119
0000c0 d1 b9 11 3d 17 30 a7 bc b2 91 51 3d fd 25 00 bd
       0.0355776 -0.020408673 0.051164337 -0.03128623
0000d0 13 f2 c4 3d 02 1b 40 3b ce b5 8b 3a a8 8d d9 3d
       0.096164845 0.0029312973 0.001065904 0.10622722
0000e0 53 f4 07 be 5d cb 7d bc 1d 23 99 3d e7 ed 82 3d
       -0.13276796 -0.01549038 0.074774005 0.063930325
0000f0 95 dc 3b 3d 91 78 3b 3c 2f 91 c0 bd d9 e4 27 be
       0.04586466 0.0114423195 -0.094026916 -0.16395892
000100 fe e6 17 3c 10 f4 76 bd 0a 7c ba bd 8d 1c 03 bd
       0.009271381 -0.06029135 -0.0910569 -0.03200965
000110 fd 70 0f be f9 21 5a 3d 7c 4c 88 bd 85 a0 cc bd
       -0.14007945 0.053255055 -0.06655213 -0.09991554
000120 c0 c0 74 3d 45 bb 9f bd 24 f6 bc 3c 4f ca 41 3d
       0.059754133 -0.07799391 0.023066588 0.047312077
000130 a2 9e 3a 3c ef 14 7f bd 11 b4 23 3d bb 92 05 be
       0.01139036 -0.062275823 0.039966647 -0.13044254
000140 d3 d5 a7 bd c5 cb 99 3c c1 71 ee 3b f2 95 0b be
       -0.081950806 0.018773923 0.007276744 -0.13631418
000150 99 d3 97 bd d6 41 59 bd dc 6b 0f 3d 5c a3 c9 bd
       -0.07413406 -0.0530413 0.035014972 -0.098456115
000160 10 0a 92 bd d4 03 63 3d af be 28 bd b9 e0 a8 3d
       -0.071308255 0.055423573 -0.041197475 0.082459874
000170 6f 78 31 bc 3c de 1e 3d 10 45 bc bd a3 4a 7f 3d
       -0.010831936 0.038786158 -0.0919286 0.06232704
000180 0a 18 7d bc 94 e7 e8 bd 1d 7d a4 bd 1a 36 6f 3d
       -0.015447626 -0.11372295 -0.08031676 0.058401205
000190 0d e4 2d 3a 34 a8 8c bd 5d 55 bc 3d 43 76 b9 bc
       0.00066334085 -0.0686802 0.09195969 -0.0226394
0001a0 17 54 c8 bd aa e6 31 bd 34 c7 4e bd 55 59 10 be
       -0.09781664 -0.04343287 -0.050482944 -0.14096577
0001b0 40 3f e4 3c 52 12 9e 3d 7b d0 09 3d 92 36 d9 bc
       0.027862191 0.07718338 0.033646088 -0.026515279
0001c0 21 f1 c3 bd 5c ab e2 bd d8 09 bb 3d 13 d7 22 bd
       -0.09567476 -0.110678405 0.09132737 -0.039755892
0001d0 62 80 50 3d db a3 0c 3a 17 b3 f2 bd 2a 4e 79 3d
       0.050903685 0.00053649925 -0.11850565 0.06086556
0001e0 49 ef 8e 3d 9b 7b af 3d ec 03 1a 3b 79 3a a6 bd
       0.06979234 0.08568498 0.0023500873 -0.081166215
0001f0 55 c0 84 3d 9b 2c 08 be f8 b2 aa bd 94 f7 cf 3c
       0.06481997 -0.13298266 -0.08334917 0.02538661
000200 57 65 7e bd a3 4a 1f 3c 46 10 44 bd 5c 83 82 bd
       -0.062108364 0.009722385 -0.047867082 -0.06372711
000210 93 a9 af 3d fc d3 97 bd 47 4d 87 3c ec 04 96 bd
       0.085772656 -0.0741348 0.01651634 -0.073251575
000220 e1 ab 6b bc ec ec cd bd b7 e5 d8 bd 26 0c e2 bd
       -0.014384241 -0.10054955 -0.1059069 -0.110374734
000230 53 65 b7 bd ae 1e 5c 3d 26 90 28 be be 99 3a bd
       -0.08954873 0.053740196 -0.16461238 -0.045556776
000240 2b 78 ea bc d0 5a d1 bd 34 3f 44 bd fb 2c 03 3d
       -0.028621754 -0.10222399 -0.047911838 0.03202532
000250 9e fc d9 bd 6d 53 a0 bc e4 04 34 be 15 2b f6 bd
       -0.10643886 -0.01957103 -0.1757999 -0.12019936
000260 3f 0f f7 bd 3c bb 9f 3d 45 20 e0 bd 3b e4 f0 bd
       -0.12063455 0.07799384 -0.10943655 -0.117622815
000270 07 ff ab 3d 20 74 c4 3d bd 59 e3 bd d5 ea b3 3d
       0.08398252 0.095924616 -0.111011006 0.08785025
000280 c8 27 00 bc e7 ff 60 bb 39 c8 8e 3d c3 fe 14 bd
       -0.007821985 -0.0034332217 0.06971783 -0.036375772
000290 02 74 c7 bc 59 f4 24 be 5b 8e 6e 3d 8e fa 8a 39
       -0.024347309 -0.16108836 0.05824123 0.0002650809
0002a0 d7 a6 12 be 9b 61 9d bd 79 79 17 be 25 03 c2 bd
       -0.14321457 -0.076846324 -0.14792432 -0.09473256
0002b0 89 9f 06 3d 0e 45 a4 bc 2a 33 19 be 8d c9 82 bd
       0.03286699 -0.02005246 -0.14960924 -0.06386099
0002c0 4a 11 f6 bd 42 89 91 bd af 7b 97 3d b9 c8 b1 bd
       -0.120150164 -0.07106258 0.07396638 -0.08680863
0002d0 b5 6c 93 3c 9c 69 b2 bd 6f 39 b1 3b 2c 24 08 bd
       0.017996171 -0.0871155 0.005408458 -0.03323762
0002e0 08 ca 31 bc 3e f8 cd bd 50 6d 0a bd 94 d1 b6 3d
       -0.010851391 -0.10057114 -0.033795655 0.089266926
0002f0 45 fd 13 be 2b cd 1e be 91 0b 8a 3d ea 4b ae bd
       -0.14452083 -0.15507953 0.06740487 -0.08510573
000300 e4 3e 05 bd 89 38 f9 bd c8 a9 6b bc 09 93 95 3c
       -0.03253068 -0.12168986 -0.014383741 0.018258588
000310 83 cf 96 bd 91 8d c0 3d 7e ee fc bd 79 38 3c bc
       -0.073637985 0.09402002 -0.12350176 -0.0114880735
000320 97 80 50 bd 19 df f0 bd 9a 9c 63 3d 5e a3 b3 bd
       -0.050903883 -0.117613025 0.05556927 -0.08771394
000330 eb 3f 06 bc 31 ec 14 bc 5d bf ab 3d 3c c1 d1 bd
       -0.00819395 -0.009089516 0.08386109 -0.10241935
000340 ae 6c 33 3d ab 26 5e 3c 9e 21 95 3d 66 05 d6 bd
       0.043804817 0.013559024 0.072818026 -0.104502484
000350 5d f2 c8 3d c9 0c f4 bd 3f 0e c5 bd 04 4f 06 3d
       0.09811852 -0.11916501 -0.09621858 0.0327902
000360 cb 2d 8e 3d 8a 82 9f bd 67 41 c9 3d 8c 76 6d bd
       0.06942328 -0.0778857 0.09826928 -0.057974383
000370 42 4c b7 3d db d1 ac bc 12 5a 15 be 8f c9 e8 bc
       0.08950092 -0.02109616 -0.1458514 -0.028416423
000380 4d 9b 25 bd d4 fe bf bc d7 44 04 bd c5 9b 80 bc
       -0.04043131 -0.023436941 -0.032292213 -0.015699277
000390 93 b1 59 3d f4 b7 8a 3d e9 70 b6 bd 90 fb 03 be
       0.053147864 0.067733675 -0.08908255 -0.12888932
0003a0 9d f1 37 3d 89 f9 c0 3c ed 2c c3 bd 2b 65 d8 bd
       0.044908155 0.023556488 -0.09530053 -0.10566171
0003b0 c2 63 47 3d e1 1b 90 3d 0e 8f d3 3d 8d 3e 86 bd
       0.04867912 0.070365675 0.1033002 -0.06554899
0003c0 e8 e1 10 3d 40 2a 22 be 7c 41 f7 3a e4 9e 47 3c
       0.03537169 -0.1583643 0.001886412 0.012183879
0003d0 20 30 d8 3d 01 5e c3 3d 05 50 d2 3c a2 17 aa bd
       0.10556054 0.09539414 0.025672922 -0.08305289
0003e0 9b f9 aa 3d e1 70 10 be d3 d3 1d be 74 0c 11 bc
       0.0834839 -0.1410556 -0.15412836 -0.008853067
0003f0 fe f4 d9 bd dc 9d aa bd 45 08 a5 bd 72 c4 a9 bd
       -0.10642432 -0.083308905 -0.08058218 -0.08289422

hyper_b_1.bias f4 [32]
000000 f2 4a bc 3b a8 c0 4e 3d 77 53 38 3c 14 4d a8 3d
       0.005746239 0.0504767 0.011250368 0.082178265
000010 46 ce ee 3c 2f dd cc 3c 38 64 db 3c 7d 12 d0 3d
       0.029151093 0.025007812 0.026781186 0.10159776
000020 2d 40 38 3e f4 aa f5 3d 01 94 06 3e 75 99 fc 3d
       0.17993231 0.11995497 0.13142397 0.12333957
000030 5b b1 03 3e 7e bd 33 bc e2 e2 79 3d a8 01 10 3e
       0.12860624 -0.010970471 0.061007388 0.14063132
000040 71 9f d4 3d a4 d2 98 3d 2f 6d 8f 3d 1a 77 88 ba
       0.103819735 0.074620515 0.07003247 -0.0010411472
000050 06 f3 e8 3d bf d9 08 3e 28 3d 02 3d 6f 47 4f bd
       0.11374478 0.13364314 0.031796604 -0.050605234
000060 a9 84 4f 3d ff 77 c9 3d b3 5e c2 bc 1f 2d 27 3e
       0.050663624 0.098373406 -0.023726797 0.16325806
000070 c3 1b 00 3e 83 5b 46 3d 3c 64 71 3d 62 7d 9e bd
       0.1251059 0.048427116 0.05893348 -0.077387586
