Large_scale_UAV/MARL_QMIX/model/qmix/0_qmix_net_params.pkl (torch, 91163 bytes, 13 tensors)

hyper_w1.0.weight f4 [64, 57]
00000000: 013a cabd c67e b0bc 11e5 8a3d 9c2b 99bd
00000010: 723f 86ba 8499 b83d e2c1 eabd df77 6ebd
00000020: 1099 a93d 1e5e 55bc 454f 33bd 646e 053e
00000030: fe11 8d3d 569e 1a3d 5b7f 223d 678e 97bd
00000040: 026b 84bd 3466 fd3d 1f99 203d 9118 c6bd
00000050: 2515 033e d245 aabd 8898 8dbd 257f cfbd
00000060: ca99 253e 6ebc 113d 3777 e23d 19f9 13bd
00000070: 58df d9bb ef46 ab3d 90ce 0a3e 5d7a 40bc
00000080: 0338 7c3d a9c1 8b3b ca28 70bd 5f07 b73c
00000090: ab8d 823d 3ca1 323c d44d 283c c53d 8a3d
000000a0: 266e 0c3d 3dce a63d 5316 853d eabf 0d3e
000000b0: deff 6138 698e 70bd 7630 12bd 7f1f 583d
000000c0: ccd7 c83c 8850 61bc a842 34bc 1a6b 483d
000000d0: 3c13 9ebd a1d0 8e3d e47d 81bd 9aab 1a3e
000000e0: b8dc 83bd 6768 9bbd 769c a2b7 1c8f c23c
000000f0: 1483 ac3d 77aa 423d 283a 1cbc d8ca b73d
00000100: df50 803d 501f 3c3c c12f 033e 377a 96bd
00000110: 3134 073e 122c f2bd 46d0 ebbd 96f0 c7bd
00000120: 2e27 b6ba eabb b83d 6016 bc3d 33d3 b23d
00000130: 3e11 55bd f23b ebbc c914 a9bd f29c 433d
00000140: 7807 be3b 61fd d93c 38f2 85bd a040 fbbb
00000150: 4119 48bd ee42 953d 5808 873d b92b e63d
00000160: 2946 98bd 8cee f8bd 73f5 8b3d 7714 1cbd
00000170: f1d9 903d 1a61 79bb 0fd2 0cbe 163b 53bd
00000180: d50c f43a 77f5 883d 556c f9bc 404f b9bd
00000190: cd49 b4bd 2092 5bbd 53fa 673d 54bc 0fbd
000001a0: 7cf9 8ebd 3c64 27bc 08f9 9f3d b9a7 6e3d
000001b0: 0b9c cf3c ca38 4dbc 48b0 093e 4dd7 03bd
000001c0: 93cb 8f3d 5a6d a13d ea51 343c 83a3 7ebc
000001d0: d692 80bb 9952 0d3e ac2d 6abb 196d fa3d
000001e0: 5ab1 123d dac4 9b3d 25d4 c83d d4ac b5bd
000001f0: a27d ecbd f200 fa3d fc7b 063e 0ee8 643d
00000200: e300 b1bd ce29 91bc 3b7c c83d 6966 6bbd
00000210: 5c5f 173e ca07 e0bd 171f 91bd 4e43 dbbd
00000220: 338c e8bc 52fd b63c dbc9 4e3d 4593 93bd
00000230: 00d5 a83c bfc2 44bd 9a04 b73d 3f2e 793c
00000240: 54ae e3bc a31b d9bc 8ff7 27bd 4eb6 a8bb
00000250: a82b b8bd 7333 aa3b 4690 713d 7baa 053e
00000260: 3b3d d9bd 02bb 043e 2e1e a93d 28fa 703c
00000270: a796 eb3d 67f0 b8bd 9aae 98bd ef6e 013d
00000280: 2cb4 493d 285a dbbd a91d ef3d 4500 e0bd
00000290: 103b 813c 38b8 d43d 6400 dabd a699 3abd
000002a0: f102 3f3d e56c a9bd 54e9 ab3d b61c 573d
000002b0: 28f2 ab3d ff7f 8dbd c12d 5ebc edb6 4abd
000002c0: 2eb3 d1bd 489c 92bc 7bff 803d d778 7ebd
000002d0: c5a2 073e f4c8 dcbc 42d4 b1bd 2567 33bd
000002e0: 04e6 043e 0099 d03d 69d6 e03d 245e 6d3d
000002f0: 421a e83d 5477 503c b986 c1bd 516e c1bd
00000300: ab14 f93d c27f 44bd b559 80bc d313 47bd
00000310: d963 34bd 707f ea3d c9fd 0a3e 0d2f f93d
00000320: 168a 413c 9410 f6bb 7c96 ca3d ef98 bdbb
00000330: c981 8e3d 6075 f03d 9208 f03d 78d7 dc3d
00000340: 0e02 a73d f72c ccbd 9957 083e 1dbd 423d
00000350: 9c8d 883c f3f4 f0bd 8423 ba3d a85e e2bd
00000360: 1802 df3d ffcc 9dbd 56c3 ce3d 79d2 dbbd
00000370: 5b8e 513d f7b5 b13d f69b 59bd d918 c03b
00000380: cbce 97bd b366 13bd 8b70 b03d 4926 803d
00000390: ed3e 9cbd fe02 ef3d f657 c5bc 8e6f c53d
000003a0: 4310 b63d 6536 cb3d b5d9 043e c6eb 9a3d
000003b0: 1000 6f3d 0cc9 8cbd 0346 9b3d 5dfd f73c
000003c0: 317f d13d 9755 e23d a976 ae3d aec8 aa3d
000003d0: 6715 323d d4ca e23d a86b 59bd 8bb5 5f3d
000003e0: 7788 a4bc d7ac b93d 9314 1cbd df7a c83c
000003f0: f5d4 0c3e 3caa 0d3e dae3 cf3d d3ca 9a3d
-0.098743446 -0.021544825 0.06781972 -0.07479021 -0.0010242297 0.09013656 -0.114627615 -0.058219787
0.082811475 -0.013022928 -0.04377677 0.13030392 0.06888197 0.037748657 0.039672237 -0.07400208
-0.064657226 0.12373009 0.039208528 -0.096726544 0.12801035 -0.083140984 -0.06913859 -0.10131673
0.16171947 0.03558009 0.11057895 -0.03612623 -0.006648939 0.08363139 0.1355536 -0.011747924
0.061576854 0.0042650294 -0.05863265 0.022342382 0.06374677 0.010902699 0.010272462 0.06750063
0.034284733 0.081448056 0.06498399 0.1384274 5.3882475e-05 -0.058729563 -0.035690747 0.052764412
0.024516962 -0.01375211 -0.01100222 0.048930265 -0.077185124 0.069733866 -0.0632284 0.15104523
-0.06438583 -0.075882725 -1.9384763e-05 0.02374988 0.08423439 0.04752585 -0.00953535 0.08974236
0.06265425 0.011482075 0.12811185 -0.073475294 0.13203503 -0.11824812 -0.115143344 -0.09762685
-0.0013897175 0.09020217 0.09183955 0.08731689 -0.052018397 -0.028715108 -0.082559176 0.047757097
0.00579923 0.026610078 -0.0654034 -0.007667616 -0.04885221 0.072881564 0.06593388 0.11238808
-0.07435257 -0.12154874 0.06833925 -0.038105454 0.07072819 -0.0038052262 -0.13752006 -0.05157002
0.0018619547 0.06687444 -0.030447165 -0.09048319 -0.08803139 -0.053606153 0.056635212 -0.035091713
-0.06981179 -0.010216769 0.07811171 0.05826542 0.025342962 -0.012525747 0.13446152 -0.03218775
0.070212506 0.07882185 0.011005858 -0.015541914 -0.003923754 0.1380104 -0.003573279 0.1222784
0.035813667 0.07605906 0.09806088 -0.08870855 -0.115474 0.122072116 0.13133234 0.055885367
-0.08642747 -0.01772013 0.0978932 -0.057470713 0.1478247 -0.10938986 -0.07086008 -0.10706197
-0.028387165 0.02233759 0.050485473 -0.07205824 0.020609379 -0.048037287 0.089364246 0.01520878
-0.027793087 -0.026502436 -0.041007575 -0.0051486855 -0.08992702 0.0051941215 0.05897548 0.13053314
-0.10607382 0.12961963 0.082577094 0.014708079 0.11503344 -0.09030228 -0.074551776 0.031599935
0.04924409 -0.10710555 0.11675579 -0.109375514 0.015775234 0.103866994 -0.10644606 -0.045556687
0.046633665 -0.08272723 0.08394113 0.052517615 0.08395797 -0.06909179 -0.013560713 -0.049490858
-0.10239254 -0.017896786 0.06298729 -0.06212696 0.13245685 -0.02695129 -0.08683063 -0.04379954
0.12978369 0.101854324 0.109783955 0.057951108 0.11333133 0.012723763 -0.094495244 -0.09444869
0.12162145 -0.0479734 -0.015667776 -0.04860289 -0.044040535 0.11450088 0.13573374 0.12167177
0.011812707 -0.0075093005 0.09891984 -0.0057860534 0.06958348 0.117411375 0.11720385 0.10783285
0.08154689 -0.09969514 0.13314666 0.047543634 0.016669087 -0.1176547 0.09088805 -0.110532105
0.10889071 -0.077051155 0.10095851 -0.10733504 0.05116115 0.08677285 -0.05312725 0.005862337
-0.074124895 -0.035986613 0.08615216 0.06257302 -0.0762919 0.116704926 -0.024089795 0.09640418
0.088898204 0.09922484 0.12973674 0.075645015 0.05834967 -0.06874284 0.07581713 0.03027218
0.10229338 0.11051481 0.085187264 0.08339058 0.043477442 0.11073843 -0.053081185 0.054616492
-0.020084603 0.0906617 -0.03810556 0.024472652 0.13753112 0.1383447 0.10150881 0.07558217

hyper_w1.0.bias f4 [64]
00000000: 4d68 103e c101 ed3d 7faa 6f3e 1a2f 843e
00000010: 378c 583e bf84 e13d 7782 673e 9d41 5abe
00000020: cd7f 033e b1da fe3d 0688 103e 321e 323e
00000030: 789a 6b3c b874 1a3e 93c0 f0bd fa3d 293e
00000040: 3eac 903d 9169 db3d 01ba 403d bc41 f13d
00000050: 3cfb 5d3d d7c2 ca3c fdd6 473e 68f9 043e
00000060: f02c 543e 49a2 893d 18a9 803e 045d 3e3e
00000070: f928 033e f515 093d 78cf 903e ff02 e83c
00000080: 8df2 783e a524 133e a14c 843e cdfc 1d3e
00000090: a407 f43d a189 543d 1b23 283e 868c 833e
000000a0: 2791 22be 06aa 513e 11c0 803e 3497 143e
000000b0: 3534 ad3d 85ee 0a3e 7271 693e 7ad4 1d3e
000000c0: 2515 093e 43da 303e d5f7 2c3e 27e3 f33d
000000d0: 44e4 a03c d6ce 6c3e 5b98 203e a62b 5b3d
000000e0: 127a 823e 3454 733e 5092 083e 684f 803d
000000f0: 5724 a23d 68c5 2a3e e4d4 b13d a55f 433e
0.14102288 0.115726 0.23404883 0.25817186 0.21147238 0.110116474 0.22608362 -0.21314092
0.12841721 0.12444056 0.14114389 0.17394331 0.01438009 0.15083587 -0.117554806 0.16527548
0.070641026 0.107134946 0.047052387 0.11780116 0.054194674 0.02475111 0.19515605 0.12985766
0.20720267 0.067204066 0.25129008 0.1859017 0.12808599 0.033468205 0.28283286 0.028321741
0.24311276 0.14369448 0.25839713 0.15428467 0.1191552 0.051889066 0.16419642 0.25693148
-0.15875684 0.20475015 0.25146535 0.14510804 0.08457223 0.1356755 0.22797182 0.15413085
0.13386972 0.1727076 0.16891415 0.1190856 0.019640096 0.23125777 0.15683119 0.053508423
0.25483757 0.2376259 0.13337064 0.062651455 0.079170875 0.16676867 0.08683184 0.19079454

hyper_w1.2.weight f4 [128, 64]
00000000: 1b6b 9d3d bdea 9b3d edf6 fb3d 3771 083e
00000010: 1ed7 2e3d 266b 3fbd 30b6 a0bc 2731 0bbe
00000020: f84c 293d 54cf c0bd 215e 78bd 0f74 b33d
00000030: 4afc 31bd 813b 203d 87bd f2bd 6635 ef3d
00000040: ab89 ef3c 1388 523d 3566 a53c 8aa4 acbc
00000050: 788d ec3d 51b9 8dbc af22 18bd 263d 3b3d
00000060: bfc0 1a3e 4aa0 103e e75a e93d ef8e 103e
00000070: 1153 fd3d 6855 09bd a3a0 073e 5627 bdbd
00000080: 6742 013c d77d fd3d 2c53 1c3e cfca ce3c
00000090: cc83 093e 5203 083a f459 a0bd d1f0 b4bb
000000a0: baeb 21bd e4c5 58bd 930d 8a3c 162d 053e
000000b0: dc92 cf3d 3759 cdbd a5bf 1e3c e1df f73d
000000c0: 9164 bc3d 4ac2 083e d5ad 0ebd 49e6 3ebd
000000d0: adac fd3d 8028 163e 6eb4 d53d 7064 29bd
000000e0: 7e7b 173e e359 3b3c b8a2 8abd a784 c1bd
000000f0: 082d 723c a05e 8b3d ff03 d53d 4a2f 123d
00000100: 9f8f 91bd 2d1e 0c3c ac91 3abc b7db 913d
00000110: daf0 b3bd 419e b9bd c3b0 9d3b c49c 8bbd
00000120: 0684 aebb b939 fbbd e55f 543d 67c8 d1bd
00000130: e479 f7bc dfc7 8b3d 0fbb 14bc 6018 efbd
00000140: f281 dcbc 7b81 daba d1d1 df3a b76e bfbc
00000150: 1c73 9dbc 0be7 46bd 7c22 ce3d 12f0 3d3d
00000160: 6f10 ec3d d73b 9a3d aa41 e63c de4f bc3c
00000170: 21b3 c7bd 55fd 2cbc 6c57 a83c d737 fd3c
00000180: 0340 663d c80f 61bd 2ac6 cf3d 8ec4 e1bd
00000190: 8e1e ff3d 4b25 393d c9fb 803d 132e 233d
000001a0: cd10 9ebc e0de 44bc 4527 9bbc 9fbd f33d
000001b0: 14b6 59bd 38bb 15be fd36 873c 2b35 9d3c
000001c0: 5b37 8c3d f6cb fb3c 6ac7 d13d b762 da3d
000001d0: 1673 313e f018 a33d 2acf eabd 68fb 80bd
000001e0: dd8d 8c3d 3e39 403c 6b9d 25bd 7214 823d
000001f0: cc1b 263d ee84 87bd e955 503d 5214 623a
00000200: c0d3 d5bd 4cf6 a3bd 5026 8abc cb18 5cbe
00000210: 71f1 ccbd 7e61 e0bd 13f7 2cbe ea1c 023d
00000220: 793f a43c 7b0f 0c3d 035d 10bd ce9f 2ebe
00000230: 815e 993b d204 15be 8faa 43bd 7cf3 5bbd
00000240: ce68 c4bd 383a 34be 0886 f4bd 35df 50be
00000250: ca60 7abd 241a 103d b5a4 1abe 1978 94bd
00000260: 869d 7bbe 8de1 22bd 5333 67be a4c9 a6bd
00000270: 788c 54bd a870 b2bd 04d9 7bbc 0fff 07be
00000280: 6942 52be 789b 4dbb 56d8 7dbe 927d 0fbd
00000290: b8c6 d4bd e1eb 4cbe e0bb 9e3c a7e5 84be
000002a0: df48 20be bfcb 57be fc57 41be 399a 7bbb
000002b0: ba24 2dbe 37e8 4fbd cc12 97bd b1af bebd
000002c0: c830 0ebc 136a 73be 3424 e5bc fba9 25be
000002d0: 4f89 2bbe 0251 4cbe 239f 2dbe 9802 64be
000002e0: b1d2 97bd 7aa5 5bbe caf9 dd3b cec9 56be
000002f0: 84e0 4bbe f771 98bd 0739 94bd 3920 c0bd
00000300: 1d7a 483d d22e b3bd 4627 3cbc 166b 56bd
00000310: d7bf ea3d a6ab aebd 6e80 59bd 8ccc 233d
00000320: ae17 873d 67df b5bd ccd0 55bd 9d7f 9ebc
00000330: 28f4 063e e3f5 a5bd 2e08 45bd 8f21 38bd
00000340: e401 983c da06 f33d 21b7 8ebc 2486 8c3d
00000350: 183e e3bc 2a2a 07bd 809e 1ebd 35f7 c4bd
00000360: d596 37bd 3859 523c ad2b 04be 7f5e a93d
00000370: 66e3 823d 1f38 883d edb3 03bd ea58 343d
00000380: c10a a2bd 5332 e13d 1a53 2239 8989 35bd
00000390: 8f8e d8bc cec0 b2bd dbbf 8ab9 2db0 16be
000003a0: 6dd7 4ebd dcaa e73c 0361 c7bd 5b30 8cbb
000003b0: f16c ca38 5206 fb3c edb2 09bc 6553 eebc
000003c0: c4cc cb3d bbf5 b9bd 5b8c 2bbd 638e 89bc
000003d0: 6045 5d3d bf95 93bb c9ee f0bd 26e2 fabb
000003e0: 38e7 8b3b 8c68 1a3c d7a1 aebd 4a64 a9bd
000003f0: 793e d03d 976e f53c 8841 ebbc dd1e 28bc
0.07686444 0.07613132 0.12302957 0.13324438 0.04268562 -0.046733044 -0.019618124 -0.13592969
0.04133317 -0.09414545 -0.060636643 0.08762371 -0.043453492 0.039119247 -0.11852556 0.11680107
0.02924045 0.0513993 0.020190338 -0.021074552 0.115504205 -0.01730028 -0.03714245 0.045712613
0.1511259 0.14123645 0.11394291 0.14117025 0.12369359 -0.033528715 0.13244872 -0.09236018
0.007889367 0.12377518 0.15266103 0.025243191 0.13429183 0.0005188483 -0.07829657 -0.0055218716
-0.039531447 -0.0529231 0.016852176 0.1300548 0.10135433 -0.10026782 0.009689246 0.121032484
0.09198869 0.13355365 -0.034833748 -0.046606336 0.12386451 0.14663887 0.10434805 -0.04135555
0.14793202 0.011435005 -0.067693174 -0.094491296 0.014781244 0.06805158 0.10401153 0.03568963
-0.07107472 0.008552116 -0.01138727 0.071219854 -0.08786173 -0.09063388 0.0048123314 -0.0681701
-0.005325797 -0.12266869 0.051849265 -0.10243302 -0.03020949 0.06825232 -0.009077801 -0.11674571
-0.026917432 -0.0016670668 0.001707608 -0.023368223 -0.019219927 -0.048560183 0.10065171 0.046371527
0.11526572 0.07530945 0.028107483 0.022987302 -0.09750963 -0.010558446 0.020549498 0.030910416
0.05621339 -0.05494669 0.10145219 -0.11023818 0.12457 0.04520158 0.06298024 0.03983886
-0.01929512 -0.012016028 -0.018939624 0.11901402 -0.05315216 -0.146222 0.016505713 0.019190392
0.06846496 0.030736905 0.10243113 0.106633596 0.17329058 0.07963741 -0.11465295 -0.06297952
0.06862996 0.011732398 -0.04043333 0.06351556 0.040553853 -0.06617151 0.05086318 0.0008624244
-0.10440779 -0.08005962 -0.016863972 -0.21493833 -0.10006989 -0.10956095 -0.16891126 0.031765856
0.020049797 0.03419445 -0.035244953 -0.17053148 0.004680455 -0.1455262 -0.04777008 -0.053699
-0.095903024 -0.17600334 -0.11939627 -0.20397647 -0.06112746 0.03518118 -0.15101893 -0.07249469
-0.24571809 -0.039765883 -0.22578172 -0.08143929 -0.051891774 -0.08712894 -0.015371565 -0.13280891
-0.20533146 -0.0031373184 -0.24789557 -0.035031863 -0.10389465 -0.20011856 0.019376695 -0.2595646
-0.15652798 -0.21073817 -0.1888122 -0.0038391484 -0.16908541 -0.050758567 -0.07376632 -0.09310854
-0.008678623 -0.23770933 -0.027971365 -0.16178124 -0.16751598 -0.19952777 -0.16955237 -0.22266614
-0.07413233 -0.21449843 0.006774162 -0.2097542 -0.19909865 -0.07443612 -0.072374396 -0.09381146
0.04894458 -0.08749165 -0.011483973 -0.05234822 0.11462372 -0.08528833 -0.053100996 0.039989993
0.065963134 -0.08880501 -0.052201077 -0.01934796 0.13179076 -0.0810354 -0.048103504 -0.04495388
0.018555589 0.11866541 -0.017421307 0.06861523 -0.02773957 -0.032999195 -0.038725376 -0.096174635
-0.04482158 0.012838654 -0.12907286 0.08269977 0.06391029 0.06651329 -0.032154012 0.044030108
-0.079122074 0.10995927 0.00015480482 -0.044320617 -0.026435165 -0.08728181 -0.00026464355 -0.14715643
-0.050498415 0.028279714 -0.097353004 -0.0042782254 9.6524025e-05 0.030642662 -0.008404476 -0.0290925
0.09951165 -0.090800725 -0.0418819 -0.016791528 0.05402124 -0.004503935 -0.11764295 -0.0076563535
0.004269507 0.00942434 -0.08526962 -0.08271082 0.10168166 0.02995996 -0.028717771 -0.010261265

hyper_w1.2.bias f4 [128]
00000000: 1e19 4b3e dc31 703e 2532 82be a052 38be
00000010: a679 25be 6f41 4b3e 1c9d 66be a128 5abe
00000020: 1217 733e af21 103e bd17 5cbe 4307 023e
00000030: 5616 a63d 65bd 3f3e 8e58 d13d 7489 79be
00000040: 63f0 623e 1189 563e 51c1 043e 6a7d 4c3e
00000050: 2060 58be 6465 7b3e bac2 0a3e 40ad 69be
00000060: 4e16 1abe 7c79 093e be91 b23e 9bc7 813e
00000070: d5f8 443e d64f 973e 50ca 86be dcbc 74be
00000080: 50e6 c63d d01e 63be da6e 7cbe 7951 dbbd
00000090: d09a ef3d 2d51 f6bd 6311 2abe da48 163e
000000a0: 5e67 fcbd c66b 4dbe 4921 2e3d d3b1 db3d
000000b0: 7522 21be 0d9f 88be be46 8ebe ac7a 68be
000000c0: 0ea3 c2bd 9745 9dbe e77a 5f3e f011 d63d
000000d0: e8cc 36be 2c8e 82bd e57f 213e ee1e 68be
000000e0: 18d1 3bbe 7a43 47be caed 663e 0a70 3cbe
000000f0: e319 3d3d 37d3 5c3e 5ca5 33be 3cc7 b3bd
00000100: a44b 853e 7241 323e 67a9 88be 8ae5 febd
00000110: b2d1 4fbe 0471 67be 02b5 c4bd 6e28 2cbe
00000120: a280 e7bd df27 f2bd 0126 dc3d d74d 17be
00000130: b839 3ebe 115b 183e 4ba7 7c3e 3c92 4b3e
00000140: 893d e43c 4be1 06be d080 373e 662b 873e
00000150: e2f9 803e 899f d93d 51f8 4a3e 6c58 4bbe
00000160: ca07 85be 0541 88be 4243 a0be 4f4b 3ebe
00000170: 22a7 bb3d 95b3 68be 1b28 cabd 9fa4 363e
00000180: ecdf 153d 7a9f febd 261d a93e d8e9 443e
00000190: 8b6d 75be 0549 36be 73c7 673e 9b67 26be
000001a0: bf96 f33d 53ec 6d3e d228 9abd c38b 063e
000001b0: c30b 063e 8604 263e 725a 773e 9b3d 773e
000001c0: e4c8 6cbe 17bb 7cbe 0c02 64be d91f 55be
000001d0: c309 643e 00b4 39be b1d2 073e 31a6 c43d
000001e0: 3520 acbd 360f 453e 94fa 66be 1491 6bbe
000001f0: c7ff 693e cacc 93be 10a2 88be 7f50 7abd
0.198338 0.2345652 -0.25428882 -0.18000269 -0.16159686 0.1984918 -0.2252087 -0.21304561
0.2373927 0.1407535 -0.2149343 0.12698083 0.08109729 0.18724592 0.102219686 -0.2436884
0.22162013 0.20950724 0.1296437 0.19969717 -0.21130419 0.24550396 0.13550845 -0.22819996
-0.15047571 0.13425249 0.34876817 0.253476 0.19235547 0.29553097 -0.26326227 -0.23900169
0.097118974 -0.22179723 -0.24651662 -0.10708899 0.1169945 -0.12027202 -0.16608195 0.14676228
-0.12324403 -0.20060644 0.042512212 0.10727277 -0.157358 -0.26683846 -0.27788347 -0.22703046
-0.095037565 -0.30717155 0.21824227 0.1045264 -0.17851603 -0.063747734 0.15771444 -0.22668049
-0.18341482 -0.19459334 0.22551647 -0.18402115 0.046167266 0.21564947 -0.17543548 -0.08778235
0.26034272 0.17407778 -0.26691744 -0.12446125 -0.20294836 -0.22601706 -0.09604837 -0.16812298
-0.11303832 -0.11824011 0.10749436 -0.14775787 -0.18576705 0.14878489 0.24673192 0.19880003
0.027861373 -0.1317188 0.17920232 0.26400298 0.25190645 0.10626132 0.19821288 -0.19857949
-0.25982505 -0.26612106 -0.31301314 -0.18583415 0.091627374 -0.22724755 -0.09870931 0.17836235
0.0365905 -0.124327615 0.3303005 0.1922983 -0.23967569 -0.17801292 0.22634678 -0.1625046
0.11893987 0.23234682 -0.07527317 0.13139252 0.13090424 0.16212663 0.24155596 0.24144594
-0.23123509 -0.24680744 -0.22266406 -0.2081293 0.22269349 -0.18135071 0.13263966 0.09602011
-0.084045805 0.19244084 -0.22556525 -0.23004562 0.22851478 -0.2886718 -0.26686144 -0.061111923

hyper_w2.0.weight f4 [64, 57]
00000000: 567f 86bd a4ce 203b 304e d4bb 0464 adbd
00000010: e3dc 153e 6b66 62be 0054 8cbc 9e48 9e3d
00000020: c6fc 9f3d 0aa2 9abd 2462 46bb 3439 273d
00000030: 7621 d43c 0990 2f3d c6a2 eebc f22a d53c
00000040: c38f 6fbd 1986 373d 067c 09bd 9306 cc3c
00000050: eba8 023d e0e0 8dbd 1c46 55bc 2201 babd
00000060: 0088 e13d 28f4 1c3c ed43 a5bc a1fb 233c
00000070: 8a63 ff3c e318 27bd 0ca2 ffbd c840 593d
00000080: 69bc f53c 4dfa 9ebb f866 65bd 242e a4bc
00000090: 0689 94bc c483 c2bd 66f1 49bd 07cd be3a
000000a0: 4274 62bd 0df0 663c 44f9 273d eef1 3cbc
000000b0: a981 b7bd f1d0 8fbd f393 99bd 0a1d 0b3e
000000c0: 9669 49bd b626 e43d d790 043e 62fa bb3d
000000d0: b1d9 88bb ecc1 cd3d d49c 153e 9048 9ebc
000000e0: ca3a f5bb 39b7 e8bd d716 86bd c159 423d
000000f0: df4f 4e3d 35a6 b03d 22d0 cb3c bf10 a9bb
00000100: 1048 b3bd 7f6d 003e d5ac 22bd 611e d53d
00000110: 2368 503d dc29 88bc 3cc6 5fbd 15e0 d23d
00000120: 4b4a 93bd 35c9 81bd 3f53 a2bd a2f8 4c3d
00000130: 57f0 3ebd bf16 83bd 3212 fb3c f237 8cbc
00000140: 3d11 c8bd bce2 02bd 1d19 86bd 29e6 633d
00000150: 98c3 77bd 97ce 603d 5909 9abd 09b0 e1bc
00000160: 16ad bdbc 0a2a b83d b053 9abd 70b2 023c
00000170: 1c63 f13d ae25 c1bd f719 61bd f022 40bc
00000180: dc20 643c 6b56 e43c d550 d53d 84ef 163d
00000190: 1236 79bd e6fb 80bc 00c2 f0bd 0f4d a8bd
000001a0: 2f9d 713d 208c cd3d e4fc c63d 9441 003e
000001b0: 54ed 803c 0b69 813d 230f 933d 137d 903c
000001c0: 3eef a43c 9722 1cbb b174 753d 1ba6 00be
000001d0: 9d3c 203d 7da3 953c 3b61 35bd b419 013e
000001e0: cc43 583d 0ea3 aa3d 658a be3c 7e08 40bd
000001f0: d91d 25bc 1f21 08bd 09a6 7b3d 7411 bcbd
00000200: af70 f7bd e0e0 043c f8d9 b53d 5d7b 68bd
00000210: 508a a53d 744b 963d 6c67 a93d c069 28bd
00000220: e666 27bc bf75 903d 2091 4f3d dd5c a53d
00000230: c495 19bd b572 4fbd 1f2d cabc 437f 943d
00000240: eae9 5e3d c023 76bd 61c9 aa3c 01a2 a73d
00000250: 3976 92bd a6a8 933d 4d5c 75bd 6bbe 533d
00000260: 3651 e23d 1474 303c c745 cbbd d576 d7bb
00000270: 3307 9f3d 8c6a a73c f0bd 5cbd 40f3 9fbd
00000280: 3523 02be 1f84 e0bb 6e63 cabd d007 febd
00000290: 786a 6e3c e122 efbd d3d4 86bd a272 5bbe
000002a0: dd6b c3bc fc31 50bd 2948 493e 225e 87bd
000002b0: 39e5 bdbd e791 383d f409 c2bc 02a7 16bd
000002c0: 8949 3ebb 60ca d1bd 9145 5e3d 190d c6bc
000002d0: fbfb bb3d b8e0 b3ba 1555 e93c 18bf cb3d
000002e0: 67c6 8fbb 143c 2f3d 087d a2bc 9b3b 853d
000002f0: 7025 433c 3d5f 99bd 0a3f 853d c173 a53d
00000300: efaf 16bd 987c da3d 14bf 8a3d 2ba0 313d
00000310: 6a42 21bd bb13 b1bd b939 a6bd 9dae eebd
00000320: e6bb 01bd 41cf 163d 6382 94ba a384 febb
00000330: d09c d7bd 266c aabd 08b2 91bd b1fb b4bc
00000340: 5ed9 11bd d7d3 a7bd eae5 8fbd 0c82 08be
00000350: 2298 b63c 14f6 273d 5671 953a 3f3e af3d
00000360: 0233 03be 2213 d43d 3967 86bd c063 293d
00000370: 872f afbd 66f9 68bc 829d e6bc 7982 a2bd
00000380: fc27 463d 7079 37be 6475 34bd debc 003e
00000390: 096b 843d 5665 ccbd d872 cbbd 18a5 953d
000003a0: d4cd a6bd ffd2 e03c 7eb5 9bbd a206 e1bd
000003b0: 9c26 40bd 90f8 d03d 59e1 c4bb f5d8 fd3d
000003c0: a084 fcbd 712b 69bd e69b febb 2241 27bd
000003d0: ada8 903d a747 c4bd d4fb a93d aa40 f93d
000003e0: 2a4d 813d 5c09 b4bd 90a1 8abd d153 c03d
000003f0: b490 12bd 275d 043e 518f ae3d 6959 e6bc
-0.06567256 0.002453723 -0.0064790472 -0.08466342 0.14635043 -0.22109382 -0.017129898 0.077286944
0.078118846 -0.07550438 -0.0030270899 0.040826038 0.025894862 0.042861972 -0.02913035 0.026021454
-0.05848671 0.04480562 -0.033565544 0.024905479 0.031899374 -0.06927657 -0.013017204 -0.09082247
0.11012268 0.009579696 -0.020173991 0.0100087235 0.031175394 -0.04079522 -0.1248208 0.053040296
0.029997068 -0.0048516155 -0.0560064 -0.020041533 -0.018131744 -0.094977885 -0.04930248 0.0014556953
-0.055286653 0.0140953185 0.041009203 -0.01153229 -0.089602776 -0.07022274 -0.07498922 0.13585296
-0.04917296 0.11140196 0.12945877 0.09178616 -0.0041763415 0.10046753 0.14610606 -0.01932171
-0.007483815 -0.11363072 -0.06547325 0.047448877 0.05036914 0.086254515 0.024879519 -0.005159467
-0.08753979 0.1254177 -0.039715607 0.10406185 0.050880563 -0.016621523 -0.05463241 0.102966465
-0.07191905 -0.06337205 -0.07926034 0.050041802 -0.046615925 -0.06400823 0.030648325 -0.01711652
-0.09768913 -0.031954512 -0.06547759 0.05563942 -0.060489267 0.05488452 -0.07521314 -0.02754976
-0.023153823 0.08992393 -0.075354934 0.007977113 0.11786482 -0.09431015 -0.054956403 -0.01172708
0.01392385 0.027873239 0.10415808 0.036849514 -0.06084258 -0.015745115 -0.117557526 -0.08217823
0.058987793 0.10036492 0.09716204 0.12525016 0.015738167 0.063188635 0.071806215 0.017637765
0.02013361 -0.0023824328 0.05992574 -0.12563364 0.039120305 0.018266434 -0.04428218 0.12607461
0.05279903 0.083318815 0.023259351 -0.0468831 -0.010077917 -0.03323471 0.06143764 -0.091830164
-0.120820396 0.008110255 0.08879465 -0.056758273 0.08083022 0.0733861 0.08271679 -0.041116476
-0.010217404 0.07053708 0.05067551 0.08074353 -0.037496343 -0.050646503 -0.024679719 0.07250836
0.054422297 -0.060092688 0.020847978 0.08185197 -0.071514554 0.072099015 -0.059902478 0.05169527
0.11050646 0.010769863 -0.09925418 -0.006575445 0.07765045 0.020436548 -0.053892076 -0.07810068
-0.12708743 -0.0068516876 -0.09882246 -0.12403834 0.014551751 -0.116765745 -0.06583562 -0.21430448
-0.023855144 -0.05082892 0.19656433 -0.06609751 -0.092722364 0.04506102 -0.023686387 -0.036780365
-0.002903553 -0.10243678 0.054265562 -0.024176167 0.09178921 -0.0013723588 0.028482953 0.099485576
-0.004387665 0.042781904 -0.01983501 0.065055095 0.011910781 -0.074888684 0.06506164 0.08078719
-0.036788877 0.106682956 0.067747265 0.04336564 -0.039369978 -0.086463414 -0.081164785 -0.116543986
-0.031673335 0.036818746 -0.0011330362 -0.0077672764 -0.105279565 -0.08321409 -0.07114035 -0.022092672
-0.035607688 -0.08194702 -0.070262745 -0.13330859 0.02228934 0.041006163 0.0011401575 0.085567944
-0.12812427 0.10355212 -0.06562657 0.041354895 -0.08553987 -0.0142196175 -0.028151277 -0.07935042
0.048377976 -0.17917418 -0.044057265 0.12572047 0.06465728 -0.09980266 -0.09934014 0.0730688
-0.08144727 0.02744436 -0.07602976 -0.10987593 -0.04691182 0.102036595 -0.006008309 0.12394897
-0.12329984 -0.056926195 -0.0077700494 -0.0408336 0.07063422 -0.09583979 0.082999855 0.12170537
0.06313546 -0.08790848 -0.06769097 0.09390987 -0.03578253 0.1292616 0.08523429 -0.028118806

hyper_w2.0.bias f4 [64]
00000000: 16fd 0dbe 682a 223e def7 973d 37f7 fa3d
00000010: dd6d 683e 2b12 bdbd 3a85 613e 79e5 5a3c
00000020: 75f1 6cbd 1888 303e 053f 52be 554f 05be
00000030: 61c8 143e b371 5d3e 4400 ad3d 5551 663e
00000040: abd1 653d f862 593e 25b1 43be e2f8 1d3e
00000050: 30cd 0f3e c450 b5bd 850f 363e 1b6e 363e
00000060: 7e6a 5e3e 3026 313d a68c 0c3e fbd1 2a3e
00000070: 549f a9bb bc24 283d 2cb6 47be 780e 783e
00000080: 2cdf 443e 78d2 3b3d 0c5e 203e 5cab 713e
00000090: 20d3 7f3e 703b 0c3e ae30 4fbc 9a56 52bd
000000a0: ed41 d63d 45d6 58bd 9f7f c13d 7a3e 333e
000000b0: 9eb6 903c 87b6 0fbe 5149 5c3e 64e8 45be
000000c0: fcc1 473e 1db4 4d3d 2acc 6d3e b3e7 26bd
000000d0: 048e 283e 368d 623e 5f76 423e 7746 293e
000000e0: 87e5 353d e31a 373d e8b6 c53d 5814 f23d
000000f0: 9e64 093d 60f9 223e 6aad 0e3e 1745 14be
-0.13866076 0.15836489 0.07420324 0.12254184 0.2269816 -0.09231981 0.22023478 0.013360375
-0.05784746 0.17239416 -0.20531853 -0.13018544 0.14529563 0.21625404 0.08447316 0.22491963
0.056108158 0.2122916 -0.19110544 0.15426973 0.14043117 -0.088532954 0.17779358 0.1781544
0.21720311 0.04324931 0.13725528 0.16681664 -0.005176464 0.041050658 -0.19503087 0.2422427
0.19225758 0.045855016 0.15660876 0.23600525 0.24982882 0.13694549 -0.0126458835 -0.05135212
0.10461793 -0.05293872 0.0944817 0.17504302 0.017665204 -0.14034472 0.21512343 -0.19326931
0.19507593 0.050220598 0.23222414 -0.04074831 0.16460425 0.2212418 0.18990467 0.16530786
0.044408347 0.044703376 0.09654027 0.118202865 0.03354322 0.15915442 0.1393334 -0.1447948

hyper_w2.2.weight f4 [32, 64]
00000000: 27ae e53d 9be2 dcbc 42bf fe3d a5c6 06bc
00000010: 74d8 71bc 9fa0 dabd befe 263e 0c10 26bd
00000020: dd8a f03d 82c3 0d3e 40d1 243d ffe9 0d3d
00000030: f8d1 d1bc 8f0d 0c3e 71d8 163d 570e f2bb
00000040: 7a97 f3bd d2aa 1f3e aa37 5e3d 6d74 d8bd
00000050: 0aa3 053d d2c4 3dbd 910a 8a3d b054 86bd
00000060: 17b6 753d e9cb 933b ad54 99bc c715 05bd
00000070: 8742 f13d 78f6 c3bd 3fde c7bd b00c 9cbd
00000080: 1f58 90bd aeaf b23d bcc4 b23d f7b5 333d
00000090: 3735 e23d b72d f6bc 8c70 bd3d f63a 2dbd
000000a0: 50d6 acbc 2135 cabd ac84 6d3d 3a9e fc3d
000000b0: dec2 cd3a 14ef 4fbd 8843 58bd e7b0 e4bc
000000c0: 1b15 92bd ffe9 e13d 2b30 003d 20f1 55bd
000000d0: 48d6 bb3d 43f1 143e 948f bc3d b8f9 14bd
000000e0: 2afb c13d 2b80 063c 69a0 273d 96d7 763d
000000f0: 5fb4 e13d 506b 63bc 13d2 cabd ae2d 90bb
00000100: c56f 59bd c65e 4b3e 840c eabc d352 3b3e
00000110: 2c25 543d 5150 5e3d fcdc b73d df31 2f3d
00000120: 5e54 bfbd e156 9e3d 2ceb a0bd 5ca7 babd
00000130: 86f0 343d 7e59 2c3c c8bc fdbb 0561 df3d
00000140: b7af 363c 1781 4c3e 0408 46bd e0b9 c33d
00000150: b93b 433e 07e0 bbbb 3b98 f9bc 2911 823d
00000160: 2101 6c3e 4ec0 233e 67ad 253e 0659 2c3e
00000170: 2fa1 393e beea 393e 4267 c03d da57 233e
00000180: 1f83 7c3d 7e59 8a3d 71db 503e 7b1a f43a
00000190: da15 993d 65b1 2e3e 06ce 153e fc2c 003d
000001a0: 8a9f 1f3c db19 e13c a6ad f43d 8431 b83d
000001b0: 7b7e b23c 9dd5 083e d0e9 b13d b6f5 b83c
000001c0: b73f b53c 6418 bd3d 4f19 263e 5a40 673c
000001d0: 2a8f 713e 19d0 96bb 4e95 933b ccec db3d
000001e0: 06e9 833b 28b8 223e 474a 133e 4f42 cf3d
000001f0: 0830 4a3d 7c6f 843d 2d2e 9b3d 144b 743d
00000200: a1c7 ae3d 5db6 9a3d 2436 273d 0124 02be
00000210: 0a6a 1bbe 1876 d4bd b14d 0ebe 6654 ba3d
00000220: 570d 853d fa5c a8bd 0d7d e03d f0f5 133e
00000230: 80fd 703d d6cf 12be 2db0 42bd 1c6b 0bbe
00000240: 0040 adbc d2eb ebbd 3201 6fbc 5cbd 3cbd
00000250: b197 d0bd 9d9a 843d d4ca a6bc 4874 e5bc
00000260: e9c9 00bd 7603 b93d 146a ebbb a5e7 b0bb
00000270: 7158 da3d 20d9 80bb e451 f1bc 6e68 f0bd
00000280: 4f91 68bd 965c 0cbd 7062 763d 1d99 70bd
00000290: 8b22 213d 081b 6d3b fb1c 603d cf92 ef3d
000002a0: 452e 77bd a6ec 62bd 993a cebc 66b5 1fbd
000002b0: 4278 acbd 9348 633d c8a0 863d 5f8d ea3d
000002c0: aef3 21bd 4edf f53c 36eb 433d e82f cebd
000002d0: d2cb 883d 1a13 cc3a 3b6a 1bbd eae8 d23c
000002e0: 3311 b5bc ce45 95bd 28bf 753d 0b70 eb3c
000002f0: bf9d c03d 2804 af3d 9357 7c3c 6a29 133e
00000300: d0cd b438 5eaf a0bd bf56 043d 81bd c4bd
00000310: dc8b c0bc 4718 e0bd c315 c83c 2c80 cdbd
00000320: d65c f3bd 294d f0bb 0150 58bd df82 10be
00000330: 91e1 b13d 5119 2c3e 0ee5 db3d 6edc 0a3e
00000340: e6d2 513d 02b7 f63d 12c4 22bd abfc f83d
00000350: 6116 aa3d 0782 ca3d 86df 903c 8164 c93d
00000360: 6e84 a43c 0657 50bb bfce 3cbd 4a7b bf3d
00000370: bd1f c33d 9877 063e 2a40 5fba 9f93 da3d
00000380: 67a4 393d 0b2f 123e a9f5 903d db5a 3b3d
00000390: 126f d83d 307c 213d ccd5 83bb ccab bb3d
000003a0: 4776 87bd 249b 073c 0acd f3bc 9a14 a4bd
000003b0: a36f a53d 186c b3bd 3cde 193e 40da 33bd
000003c0: 56bf 933d bf09 873d 12ec 183e 8e87 953d
000003d0: dd06 7fbd dcdd e43c 16c7 0abc 2833 f3bd
000003e0: 7dd3 4ebd 8c70 edbb fb64 723d b6a4 5e3d
000003f0: 7aff 893c 9b14 8dbc 56f8 093d f625 04be
0.112148575 -0.026963523 0.12438823 -0.0082260715 -0.014761079 -0.10675167 0.16308114 -0.040542647
0.11745236 0.13844112 0.04023862 0.034646984 -0.025612816 0.13677047 0.03682751 -0.0073869633
-0.11894126 0.15592507 0.054252304 -0.105690815 0.03262619 -0.04633028 0.06740297 -0.065591216
0.059988108 0.004510392 -0.018717134 -0.03249147 0.11780267 -0.095684946 -0.09759187 -0.076196074
-0.07048058 0.087249145 0.0872893 0.043874707 0.11045306 -0.030051095 0.09249982 -0.042292558
-0.021098286 -0.09873415 0.057987854 0.12334867 0.0015698334 -0.050765112 -0.052798778 -0.027916385
-0.07132932 0.11030959 0.031295937 -0.052231908 0.0917173 0.14545159 0.09207073 -0.036370963
0.09471734 0.008209269 0.040924463 0.060264193 0.11020731 -0.013880566 -0.0990335 -0.0043999767
-0.053085107 0.19860372 -0.028570421 0.18293314 0.051793262 0.054275814 0.08977696 0.04277217
-0.09342264 0.077314146 -0.078573555 -0.091139525 0.044174694 0.0105193835 -0.0077434517 0.10907177
0.011150292 0.19971119 -0.048347488 0.09556937 0.19065751 -0.0057334932 -0.030468097 0.06350929
0.23047306 0.15991327 0.16179429 0.16830835 0.18127893 0.18155953 0.09394695 0.15951481
0.061648484 0.067553505 0.2039621 0.0018623614 0.07474871 0.17059858 0.14629373 0.0312929
0.009742627 0.02747815 0.11947183 0.08993819 0.021788826 0.13362737 0.08687174 0.022578102
0.022125108 0.09233168 0.16220592 0.014114464 0.23589769 -0.004602444 0.0045038825 0.10738525
0.0040255813 0.15890563 0.14383803 0.10120069 0.049362212 0.064665765 0.07577167 0.059641913
0.0853417 0.07554314 0.040823117 -0.12709047 -0.1517717 -0.10374087 -0.13896824 0.09098129
0.06496685 -0.08220859 0.109613515 0.14449286 0.058835506 -0.14337096 -0.047531296 -0.13615078
-0.021148682 -0.115195885 -0.014587687 -0.046079025 -0.10185183 0.06474803 -0.020360388 -0.028009549
-0.031442557 0.09033863 -0.0071842764 -0.005398708 0.106614 -0.0039321333 -0.029457994 -0.117386684
-0.056779202 -0.034267984 0.06015247 -0.05873977 0.039339583 0.0036179442 0.054715138 0.116979234
-0.06034686 -0.055401467 -0.025174426 -0.038991354 -0.08421375 0.055489134 0.06573635 0.11452746
-0.03953903 0.030013707 0.047831737 -0.10067731 0.06679501 0.0015569658 -0.037943106 0.025745828
-0.022102928 -0.07288705 0.059996754 0.02873995 0.09405088 0.085457146 0.015401739 0.14371267
8.6214044e-05 -0.07845949 0.03230929 -0.096064575 -0.02350419 -0.109421305 0.02442444 -0.100342125
-0.118829414 -0.007333417 -0.052810673 -0.14112423 0.086856015 0.16806532 0.10737048 0.1356065
0.05122652 0.12046625 -0.03973777 0.121575676 0.0830505 0.09888082 0.01768471 0.09833623
0.020082679 -0.0031790151 -0.046095606 0.093496874 0.09527538 0.13131559 -0.0008516336 0.10672688
0.045322802 0.14275758 0.07078106 0.045740943 0.1056806 0.039425075 -0.0040232893 0.09163627
-0.066143565 0.0082767345 -0.029760856 -0.08011742 0.08077934 -0.087608516 0.15026182 -0.04390931
0.07214229 0.06593656 0.14933804 0.07301246 -0.062262405 0.027937822 -0.008470317 -0.11874992
-0.05049466 -0.0072460826 0.059178334 0.0543563 0.016845454 -0.01722174 0.033684097 -0.12905106

hyper_w2.2.bias f4 [32]
00000000: 20dc 353e 86aa a43d 92dd 6bbe a5fb 473c
00000010: 9d85 1abe 48ec 323e 4449 403e abec cdbd
00000020: e175 ddbd 0f60 41be beed 5b3d c3de 113e
00000030: 9eac d2bd f6e6 543e 2e6d 3c3e ec66 583e
00000040: bd51 91bd cab3 02be 33e5 0fbe fd44 643e
00000050: 3824 5d3e 6ebe 3d3d 1cf7 1c3e 7aa5 3e3e
00000060: 343b 283e c4a0 3ebe a7d4 64be 449f 733e
00000070: 8b1a b7bc 4807 19be e627 52be ae1b cbbd
0.17759752 0.08040337 -0.23033741 0.012205993 -0.15090032 0.17472947 0.18777949 -0.100549065
-0.10813499 -0.188843 0.053693525 0.14245133 -0.1028683 0.2079123 0.18401024 0.21133012
-0.070956685 -0.12763897 -0.14052276 0.22291942 0.21595848 0.046324186 0.1532864 0.18617812
0.16428834 -0.18616015 -0.22346745 0.23791224 -0.022351524 -0.14944184 -0.20523033 -0.09917389

hyper_b1.weight f4 [32, 57]
00000000: 9d8a c0bc 583c 983d 1e2a ca3d c144 6d3c
00000010: 8dfc 76bd 310c 213c 5c23 3ebc b518 52bc
00000020: 085f 923d a8aa a4bd bf8d 233e 110e ec3d
00000030: 9848 263d 8a2a b43d 2f48 6f3d bdd5 fb3d
00000040: 8404 25bc 81ee ee3d a326 dd3d cfd2 e83d
00000050: 40e5 5bbd 71e7 cd3d def7 8dbd 7aba 98bd
00000060: 2447 0ebc 9647 e6bd 60b0 0fbd a77c c73c
00000070: 2de0 e0bc 320a 223d 13e4 da3d 2fcc e03c
00000080: 33e9 0c3e 5346 20bc 7a09 e23d 9b1e 35bd
00000090: 0118 a43d 1379 6cbd 2e85 d2bd 5de0 58bd
000000a0: 7bba b3bd 3a5b 7e3d f631 c3bc 9d26 923d
000000b0: d90e 573c 3b09 133e e01e b7bb 5979 c13a
000000c0: 3b7d 2d3b 5213 ddbd b3a4 053d 0fa5 cf3d
000000d0: d0d0 b5bd 6604 133d 0d3d f53c 1c26 8cbc
000000e0: 9fc0 5bbd 1878 4abd 1a7d 47bd 99c1 673d
000000f0: 33a4 143d 0f09 1dbe 0daa 81bd 714b 0bbe
00000100: 006e 5e3d a4bf 2dbd c3b3 ba3d 4c88 e83c
00000110: dcfd 453c 6209 513c 9746 c53c eb69 0fbe
00000120: 8119 22be 6af4 9ebd de67 343d f689 0f3a
00000130: 0f06 a1bc 14b6 563d 585c 57bd a92a 033d
00000140: 1418 b93d 5682 23bd 19a8 cabd 47dd 21bd
00000150: 8754 03be 29cb f3bc c219 c5ba 52ab 12bd
00000160: 49ba b6bd 8294 74bd d214 0ebd df75 26bd
00000170: 30d6 80bc ce7f 6bbd 67c1 0ebe a19d 09bd
00000180: 2d35 35ba ae1d e7bd 0acd 873b ee19 a23d
00000190: 6871 9cbd 36f7 61bd 3047 18be 8cdf 31bc
000001a0: 8868 1b3d e765 edbc ecda d43c 3d5a 6d3d
000001b0: 0272 7b3d 4277 743d 6fc0 e6bd a48f 913d
000001c0: ef88 6b3d 25a5 173c 2eff 293e 66a1 aa3d
000001d0: 254e 34bd 8e7a 9c3d eaa4 233d 657c 223e
000001e0: c2aa e43d 1eab c63b c75e 573e 9383 b53d
000001f0: c95b a83d afe5 e43d 283e 58bd 3746 8b3d
00000200: 6c85 373e 9e5c 8ebc 91ad 403e b029 9d3d
00000210: 84da 343e 009f cabb 6663 233d 1582 253e
00000220: f293 fc3d 611b 093e 1189 cabc 45cd 263e
00000230: 6d55 bb3d aec6 933d 2d8d beba f5a4 883b
00000240: e489 fe3d 2721 b73d da04 4e3e 6bba 2a3e
00000250: b122 973c f3cf e4b9 e839 333d 89fc fa3d
00000260: d373 2d3e 10ca 2c3e da01 3d3e 09ba 1c3d
00000270: 4d5c e53c 677a 2abd bc93 3b3e df7d d53d
00000280: 0279 34bd b4c7 203e 0816 523e 9039 1c3e
00000290: 70cd 313e 153f 24bd 00a5 de3d 7a6f 7d3e
000002a0: 190c 9d3d 41dd 263e 2ac4 343e 1d64 01be
000002b0: 92a5 2b3d 6350 f3bd 0296 41bc ef85 8abc
000002c0: 1e3a d1bd 4a8c 08bd 87ec 6fbd 85cf 31bd
000002d0: d901 993b c4c1 a9bd 7ccb 93bd 1555 393c
000002e0: 80cf e9bd b221 183d e47f 9b3d 2583 b13d
000002f0: 5dc3 d4bd 134d bf3d bbca 95bd 27d6 55bd
00000300: e7b3 853d a4e4 9b3d 3656 bf3d e97c 96bd
00000310: 87c7 b83c cc2e ed3d 8154 babd 3369 643c
00000320: 8942 20bd f6c4 c13d b62d b7bd afa2 ce3b
00000330: 75ec 25bc e396 a8bd c806 283d e458 14be
00000340: c1e4 fabd d3d4 79bc dba9 00be acd9 9e3c
00000350: c0ba 1c3d 69b8 373d 43ca 583d 18bd 9c3d
00000360: 3471 b6bd 9ce6 f43c 7e2a 02be a94e e53d
00000370: 018f 863d d260 3abd f621 e4bd 0574 03bd
00000380: 17e1 0e3e cd9b a13b 6279 013d 7051 2dbd
00000390: faaa 14bd bfcf 36bc 99b0 953d a109 4ebd
000003a0: 19ae c3bd ee67 adbd 2a5b 03bd 319c 03bd
000003b0: 4d76 e9bd 9322 f73d 93a6 093e 0410 a33d
000003c0: 1ee6 6fbd 6a94 f13d fd1b eb3d 28d5 0d3e
000003d0: 807b e43c 4882 093e accc 2a3d d5eb ab3d
000003e0: 93a3 a5bd 6bc5 01bd a11e b13d 3978 ddbd
000003f0: edce 1f3e 0f97 0a3e af00 c2bd 27a2 883d
-0.023503596 0.07433385 0.098713145 0.014481724 -0.060299445 0.009829567 -0.01160511 -0.012823273
0.07147032 -0.080403626 0.1597204 0.115261205 0.040596575 0.08797176 0.05841845 0.12296627
-0.010071877 0.11666585 0.10798385 0.113683335 -0.053685427 0.100539096 -0.069320425 -0.074574426
-0.008683953 -0.11244123 -0.035080314 0.024351431 -0.027450645 0.039560504 0.10688033 0.027441112
0.13760833 -0.009782392 0.11036964 -0.04421864 0.08012391 -0.057732653 -0.10279308 -0.052948344
-0.08775803 0.06209872 -0.023827534 0.07136271 0.013126099 0.1435899 -0.0055883974 0.0014760896
0.0026472348 -0.10794701 0.032627773 0.10138904 -0.088777184 0.035892867 0.029936338 -0.017108016
-0.053650495 -0.049430937 -0.04870329 0.056581113 0.036289405 -0.15335487 -0.06331263 -0.13602997
0.054304123 -0.04241909 0.09116318 0.028385304 0.012084451 0.012758585 0.024081511 -0.14005248
-0.15830041 -0.07761462 0.044044368 0.0005475575 -0.01965621 0.052419737 -0.0525783 0.032023106
0.09037796 -0.03991922 -0.09895343 -0.039517667 -0.12825213 -0.02975996 -0.0015037584 -0.035807915
-0.0892225 -0.05971194 -0.034687825 -0.040639754 -0.015727133 -0.05749493 -0.13940965 -0.033597592
-0.0006912526 -0.11284958 0.0041443156 0.07915102 -0.07638818 -0.0551674 -0.14870906 -0.01085652
0.037941486 -0.028979255 0.025983296 0.057947386 0.061388023 0.059684046 -0.112671725 0.071074754
0.057503637 0.009255682 0.1660125 0.083315656 -0.044019837 0.07640563 0.039952196 0.15867765
0.11165382 0.006062879 0.21032248 0.088629864 0.08220632 0.11176621 -0.05279365 0.06800502
0.1792199 -0.017378148 0.1881621 0.07673967 0.17661482 -0.006183505 0.039889716 0.16162904
0.12332906 0.1338935 -0.024723561 0.16289242 0.09147153 0.072156295 -0.0014537923 0.004170055
0.12428644 0.0894187 0.20119038 0.16672675 0.01844916 -0.00043642483 0.043756396 0.122551985
0.16938715 0.16873956 0.18457738 0.038263354 0.027998114 -0.04162064 0.18318075 0.10424399
-0.044060715 0.1570118 0.20516217 0.15256333 0.17363524 -0.040099222 0.10871315 0.24749556
0.07668323 0.16295339 0.17652956 -0.12635846 0.041905947 -0.11880567 -0.01181555 -0.016909568
-0.10216163 -0.033336915 -0.05857518 -0.043410797 0.0046694097 -0.08288911 -0.07216546 0.011311789
-0.114165306 0.03714151 0.075927526 0.08667592 -0.10388825 0.093408726 -0.073140584 -0.052206185
0.06528454 0.07611969 0.09342615 -0.073480435 0.02255608 0.115811914 -0.09098149 0.013941097
-0.039125953 0.094613954 -0.089442655 0.0063060145 -0.0101271765 -0.08231904 0.041022092 -0.14487034
-0.122506626 -0.015248495 -0.12564795 0.019390903 0.038264036 0.0448536 0.052927267 0.07653254
-0.089083105 0.02989512 -0.12711522 0.11196644 0.065702446 -0.04550249 -0.1113929 -0.032093067
0.13953052 0.004931903 0.0316099 -0.042313993 -0.03629587 -0.011157929 0.07309074 -0.05030215
-0.09554691 -0.08467089 -0.032069363 -0.032131378 -0.11399517 0.120671414 0.1344245 0.07962039
-0.058569066 0.11795886 0.11479948 0.13850844 0.02789092 0.13428605 0.041699097 0.08394591
-0.0808784 -0.031682413 0.0864842 -0.10813946 0.1560628 0.13534187 -0.09472787 0.06671553

hyper_b1.bias f4 [32]
00000000: d6da 693e 73ec 333e 03d9 af3e 9387 083e
00000010: 9437 713e 9f6d 853e bf23 753e 18aa f53c
00000020: 3c91 063e 6dd6 0e3e eacb 213e 64e2 773e
00000030: f8b1 003e ec2e e83d 1f5c 583d bace 693e
00000040: dd8a 6f3e de59 323e 6768 453e 8cca 0c3e
00000050: 7c8a 1e3e b355 0c3e 66be 923d 9eb3 353e
00000060: 1a8e 3d3e f868 963e aed1 573e 386b d23d
00000070: 15b2 0b3d e458 623e bd87 ce3d 7b6d 053b
0.22837386 0.17570667 0.34345254 0.13332967 0.23556358 0.26060197 0.23939417 0.029988334
0.1314134 0.13948984 0.15800443 0.24207455 0.1256789 0.11337075 0.05282223 0.22832766
0.23392816 0.17417094 0.19278108 0.1374914 0.15482515 0.13704567 0.07165222 0.177443
0.18511239 0.2937696 0.2107608 0.102743566 0.03410538 0.22104222 0.10084484 0.0020359445

hyper_b2.0.weight f4 [32, 57]
00000000: 3099 0b3e b0e3 9ebd a3ef 0fbe bcf1 953d
00000010: 54c9 253d 41fe af3d 6610 2fbd b6d8 043e
00000020: 624d c83d 5326 95bc 8fff eebd d436 b8bd
00000030: 969a 8ebc a346 06be 2243 ba3d 40b8 68bd
00000040: 80e3 20bc 881d 3a3d f8fa b33d 16f3 383d
00000050: 332b 883d 9082 05be e1e5 5cbd 2ece 0dbe
00000060: e1a9 663d 12b6 2cbc e31c d5bd 2513 0bbd
00000070: c09e 7f3d 3ad2 29bd e062 65bd 75fb 15be
00000080: 0c02 cc3c 2166 bebd 81a3 29bd 88ab 0f3d
00000090: 67d7 a9bd 5d93 53be 49ba 65bc 530a 073e
000000a0: bdd3 ca3d 7113 a23d b2e2 cabd 947a 203c
000000b0: b0e5 32bd 5cf5 ccbd e9f9 b33d 11a7 0ebc
000000c0: be48 95bd 0d26 083e 0787 d4bd cffa 373d
000000d0: 8791 933d d82d 733d cbfd db3d 5d81 823d
000000e0: c904 e73c 9b42 013e 1fda 063e 3b93 373e
000000f0: 5bda c9bb 9504 f33c c982 473e ffd0 c13c
00000100: 561e 9cbc 7127 053e 1268 8f3d 02de 4b3e
00000110: f83c 333e a7d6 3c3d 1113 47bd ec2e 143e
00000120: f824 1a3e 6b3b 01bc 22fe fd3d 4767 0b3e
00000130: 7dc8 443e 3756 d53d 8246 1fbd bf6f 843d
00000140: e890 ad3d df2d 4c3d 711d e73c 2b1d fa3d
00000150: e066 203d f2af d63d 6735 7f3d 1b4d 213d
00000160: 8b96 923d edd0 853d 70c3 9b3c 1a51 203e
00000170: edf7 27bd 42eb 913c e4c4 fd3d 1fa7 b43d
00000180: 8841 193e 2e33 46bd 7cd8 dc3d d532 ed3d
00000190: da89 d5ba dc88 543d 7f32 97bc c1a3 2b3e
000001a0: e801 8d3d 953b 143e 63ca adbc dd80 233d
000001b0: e7f3 313e 4391 06bd 871a c83d 9cd0 233e
000001c0: d313 0c3e b3ff 403e 8dbe 213e c1c0 0d3e
000001d0: cf1e 283e f04c 3e3e b40a 82bd 8f15 c2bd
000001e0: 74f4 d9ba 07ae b43c 4022 a6bd b4a2 213e
000001f0: 2b1c 1f3e b7f8 583c b39c c43c 7484 0bbd
00000200: 5713 3b3e 5c2e 163c 6e4c 5e3d e2cf 87bd
00000210: b5cd 2c3e bf32 8dbd 6cc7 193e b8c4 1f3e
00000220: c6e2 29bd 1c96 e03c 35b2 843c 0263 f33d
00000230: 5712 2d3d 12c2 6abc 9dd1 6bbd b5c6 033e
00000240: 9ddc a83c 8c4a 423e dc19 773d f725 173d
00000250: d681 093e df26 d93d 52e2 06bd cd25 de3d
00000260: 3a19 213e ead4 273e f1d7 2a3e c327 723d
00000270: c55e 64bd 5e92 d6bc 608a 79bd 5c75 08bd
00000280: f4cb 5cbc 61b9 283e a780 543d a9ca e839
00000290: f7ac cd3b d390 eebc 72a0 87bc e50c 9a3d
000002a0: d2ea 903d 4d60 ac3b d94b f83d 0751 6cbe
000002b0: 6e31 90bd 8c37 943d 3d46 893d 4cfd 84be
000002c0: 9eb8 c0bd 1076 a8bc 70c2 943d f031 153d
000002d0: 1fed d7ba c37d 06bd 0247 723d 4b21 f4bd
000002e0: 5c61 273d cde6 a43d d245 eb3b f5b5 47be
000002f0: 7020 fb3c ea97 fc3d 9270 3ebe 463b 2d3e
00000300: 66cf 13bd 2c9e b33c d4e0 2abe 5acc 22be
00000310: 5395 253d 7720 33be 0f8c ad3d bb2b 23be
00000320: 3476 e13d 6918 b1be d69e 513e 291c 0abe
00000330: 6a96 bebc c40d 98ba c412 08be 4395 1bbe
00000340: 5db2 b63d 71cd b53c 1fc1 8abb fb6b f03d
00000350: 8159 3c3d c75e 973d 4ae7 2c3d 53b5 04bc
00000360: 52c5 20bb 1668 d03c 3d72 b53d f421 b43c
00000370: 4062 9fbd 66e2 45bd 6ee3 e0bd b6b2 3c3d
00000380: 05aa 953a 22b5 b53d f11c d53d ffc8 583d
00000390: 4c88 223e 3f74 ebbd ebbf 8abd 2daa 8dbd
000003a0: 7404 093c 94e2 2bbd 811c c13d e8a4 d8bd
000003b0: 9d9c 0bbe 06ea 763e 2c1a 533d c590 fc3d
000003c0: f396 9a3d 7b2d 38bc 1b0f a7bb 9835 dc3d
000003d0: 3fa8 b23d bcf9 bfbd 0624 00be 92f5 723d
000003e0: cc20 2fbd b96e 55bc 0fd3 c8bd df7d a4bd
000003f0: 7aa1 1f3e 39bc c23c c4af 933b 92cc 003e
0.13632655 -0.07758272 -0.14056258 0.07321498 0.040475205 0.08593417 -0.04274025 0.12973294
0.097803846 -0.018206751 -0.11669838 -0.08994833 -0.017407697 -0.13112883 0.09094836 -0.05681634
-0.009819865 0.04543832 0.08788103 0.0451537 0.066488646 -0.13038087 -0.053930167 -0.13848183
0.056314353 -0.010541456 -0.104059 -0.033953805 0.062407255 -0.041460253 -0.056002498 -0.14646704
0.02490332 -0.09296823 -0.041415695 0.035075694 -0.08293038 -0.20661683 -0.014021465 0.13187532
0.09903667 0.079138644 -0.0990652 0.00979485 -0.04367608 -0.10007736 0.08787901 -0.008706824
-0.07289265 0.13295765 -0.10377317 0.044916924 0.072054915 0.059369892 0.107417665 0.0637233
0.028200524 0.12623064 0.13169144 0.17927258 -0.006160063 0.02966527 0.19483484 0.023659227
-0.019057434 0.13003327 0.07002272 0.19908908 0.17503726 0.046103146 -0.048602168 0.14471024
0.15053165 -0.0078877015 0.124019876 0.13613616 0.19217105 0.10416835 -0.0388856 0.064666264
0.08474904 0.049848434 0.028212281 0.122125946 0.03916061 0.10482778 0.062306788 0.039380174
0.0715762 0.0653399 0.01901409 0.15655938 -0.041007925 0.017812375 0.123910695 0.08820938
0.14966404 -0.048388653 0.107834786 0.11581961 -0.0016291693 0.05188833 -0.018456696 0.16761686
0.06885129 0.14475854 -0.02121467 0.039917815 0.17378198 -0.032853376 0.09770685 0.15997547
0.13679437 0.18847542 0.15795346 0.13843061 0.16418003 0.18584037 -0.06349698 -0.09476768
-0.0016628639 0.022055639 -0.081120014 0.15784723 0.15538089 0.013242892 0.024000501 -0.034061864
0.18269096 0.009166326 0.054272108 -0.066314474 0.16875346 -0.06894445 0.1501748 0.15602386
-0.041476034 0.027415328 0.016198257 0.118841186 0.04225382 -0.0143284965 -0.05757295 0.1286877
0.02061301 0.1897375 0.060327396 0.03690144 0.13428435 0.10603117 -0.03293068 0.10847054
0.1573228 0.16389814 0.16683938 0.05911995 -0.05575444 -0.02619284 -0.06092298 -0.033315048
-0.013476361 0.16476966 0.051880505 0.00044401482 0.0062767225 -0.029121792 -0.016555998 0.07521991
0.070760384 0.0052605034 0.12123842 -0.23077784 -0.07040678 0.07237157 0.0670285 -0.259745
-0.09410213 -0.02056411 0.072636485 0.036424577 -0.0016473866 -0.03283478 0.05914975 -0.11920413
0.040864334 0.08051834 0.007179954 -0.19503005 0.030655116 0.12333663 -0.1859763 0.16917142
-0.036086462 0.021926008 -0.16687328 -0.15898266 0.04042561 -0.17492853 0.0847398 -0.1593465
0.110088736 -0.34588936 0.20470747 -0.13487305 -0.023265082 -0.0011600782 -0.13288409 -0.15193658
0.08920739 0.022192689 -0.0042344476 0.11739346 0.045983795 0.07391124 0.042212762 -0.008099872
-0.0024531675 0.025440257 0.0885968 0.021988846 -0.077824116 -0.048311614 -0.10980879 0.04606887
0.0011418468 0.08872439 0.10405911 0.05292606 0.15872306 -0.114967816 -0.06774887 -0.06917224
0.008362878 -0.04196413 0.09429265 -0.10578328 -0.13633962 0.2411271 0.05153863 0.123323
0.075483225 -0.011241312 -0.0050982363 0.1075241 0.08723497 -0.09373805 -0.12513742 0.059316225
-0.042755887 -0.013026887 -0.09805881 -0.080318205 0.15588942 0.023771392 0.004507037 0.12578037

hyper_b2.0.bias f4 [32]
00000000: 0d24 0dbe 147f 763e 9623 373e e1d3 e1bd
00000010: 48ac 34be 800e 283e b9c1 2dbe 34f4 783e
00000020: 7864 07be 4d48 06be 8339 5bbe 792f 823e
00000030: eaef 993e 003f c2bd 79a7 ebbd 4577 d43d
00000040: 9f8a 6f3e 397b 19be 4a2d 333e f83b b1bd
00000050: a74b 3cbe fc65 983d 0867 a73e 079f b8bc
00000060: 72d5 863e e37f 9a3e 2e02 9d3e e8ba 39be
00000070: 9a60 4a3e fb24 fdbd 68ea 953e f6ca fbbd
-0.13783284 0.24071914 0.17884669 -0.11026741 -0.17643845 0.16411781 -0.1696843 0.24311906
-0.1322192 -0.13113518 -0.21408658 0.25426844 0.30065852 -0.094846725 -0.11506552 0.10374311
0.23392724 -0.14988412 0.17497745 -0.08654016 -0.18388234 0.07441327 0.32695794 -0.022536768
0.2633472 0.30175695 0.30665725 -0.18137705 0.19763413 -0.12360569 0.292804 -0.12294571

hyper_b2.2.weight f4 [1, 32]
00000000: 6a51 8cbe 8f5a 193e c6bc 023e 8107 e6be
00000010: d7ea 01bf 051c 833e e851 73be 5975 713e
00000020: d052 67be 1f7b a5be 697e 76be 8805 823e
00000030: 3be1 df3d 9b05 b4be dc17 9abe 1e58 323e
00000040: 9214 403e 9333 8ebe a84b 043e 2ffc ecbd
00000050: 544e 60be 2cd9 8c3d ad1b 893e 51e4 e8be
00000060: 5e54 233e 6956 f93d 4cbc 373e df52 63be
00000070: 7af6 783e 1e4f dabe ae71 593e e7ea cebe
-0.27405864 0.14975952 0.12767324 -0.449276 -0.5074896 0.25607315 -0.23761714 0.23579921
-0.22590184 -0.32320496 -0.24071659 0.25394845 0.10931631 -0.35160527 -0.30096328 0.17416427
0.18757847 -0.27773723 0.12919486 -0.11571538 -0.2190488 0.0687736 0.26778927 -0.45486692
0.15950152 0.121746846 0.17942923 -0.22199582 0.24312773 -0.42638487 0.21234772 -0.4041359
