Large_scale_UAV/MARL_QMIX/model/qmix/1_qmix_net_params.pkl (torch, 55679 bytes, 9 tensors)

hyper_w1.weight f4 [128, 57]
0	0x3d95fcd9	0.073236175
1	0xbdefd323	-0.11710193
2	0x3b8b4129	0.004249711
3	0x3d3c8bc3	0.046031725
4	0xbe1e4072	-0.15454271
5	0x3db16618	0.08662051
6	0x3d000848	0.031257898
7	0xbd8cbef0	-0.06872356
8	0x3dbc48c1	0.09193564
9	0x3d270f40	0.040786028
10	0x3dc9996e	0.098437175
11	0xbe11df01	-0.14245225
12	0x3da8fec0	0.08251715
13	0xbe0b540f	-0.13606285
14	0xbcefa984	-0.029255636
15	0xbdbfcdaa	-0.09365399
16	0x3e081af9	0.13291539
17	0xbca55121	-0.020180287
18	0xbdbe92fc	-0.09305379
19	0xbdde8998	-0.10866088
20	0xbc987c4d	-0.018613959
21	0xbd6bed7b	-0.057599526
22	0x3d70b830	0.058769405
23	0x3d5a9810	0.053367674
24	0x3c999bb2	0.018751
25	0x3d1e7122	0.03868211
26	0xbdb14d24	-0.086572915
27	0xbd504740	-0.0508492
28	0xbd5da311	-0.05411059
29	0xbe06e78a	-0.13174263
30	0xbdd232a0	-0.10263562
31	0x3cea2f17	0.028586907
32	0xbbfad253	-0.007654467
33	0xbbb3c43f	-0.005486041
34	0x3d92ed2c	0.07174143
35	0xbdd6c864	-0.1048744
36	0xbca79dea	-0.020461041
37	0x3d2ebbfa	0.042659737
38	0x3daa430d	0.0831357
39	0xbd1eb9c0	-0.038751364
40	0xbca41273	-0.020028329
41	0xbdd6756e	-0.10471617
42	0xbe2cac3b	-0.16862576
43	0xbd1227d0	-0.0356825
44	0xbd9db354	-0.0770022
45	0xbd3efcdb	-0.04662786
46	0xbe2bc598	-0.16774595
47	0x3c3c6754	0.011499245
48	0xbe1879d6	-0.14890227
49	0xbe28a90e	-0.16470739
50	0xbde2d759	-0.110762306
51	0xbdfce5a2	-0.123484865
52	0x3d2011ad	0.039079357
53	0x3d6ca463	0.05777396
54	0xbe3c7ff3	-0.18408184
55	0xbc73f37f	-0.014889597
56	0xbdbfa512	-0.093576565
57	0x3e1fa695	0.1559089
58	0x3ded9a18	0.11601657
59	0x3d410e41	0.047132734
60	0x3e09fb79	0.13474835
61	0xbc084cd2	-0.008319097
62	0x3da1e578	0.07905096
63	0x3c0e325e	0.008679001
64	0xbdb3a684	-0.08771995
65	0xbd84e746	-0.064894244
66	0x3c6c9dea	0.0144419465
67	0xbe049260	-0.12946463
68	0x3e31f44a	0.17378345
69	0xbd6686c9	-0.056280885
70	0xbe1b5dbf	-0.1517248
71	0x3d40d0e0	0.0470742
72	0xbbd4503f	-0.0064792926
73	0xbe14a790	-0.14517045
74	0xbcafe5c9	-0.021471875
75	0x3e12d347	0.14338408
76	0x3c5aec4c	0.013362002
77	0x3d80d0cf	0.06289827
78	0x3dff1af1	0.124563105
79	0xbe3a00d0	-0.18164372
80	0x3dcdf5bf	0.10056638
81	0xbd4f9425	-0.05067839
82	0xbe2ef13b	-0.1708421
83	0x3d9dea67	0.07710724
84	0x3d84411c	0.06457731
85	0xbdcc378a	-0.09971531
86	0x3d144cd0	0.036206067
87	0x3e0f2d32	0.13982084
88	0xbc38ed1c	-0.011287
89	0x3d839baa	0.06426175
90	0x3db17739	0.08665318
91	0xbd935a09	-0.07194907
92	0x3e558ec4	0.20855242
93	0x3d2ca393	0.042148184
94	0x3e3dd514	0.18538314
95	0xbde3c523	-0.11121585
96	0x3c62017a	0.013794297
97	0xbda2dd7e	-0.079524025
98	0xbd4c9de2	-0.049955256
99	0x3cae70cb	0.021294018
100	0xbd7bee99	-0.06150684
101	0x3e0636f0	0.13106894
102	0x3d8c088a	0.06837566
103	0xbd833300	-0.06406212
104	0x3d9643cf	0.07337152
105	0xbd307788	-0.043082744
106	0xbd9971c2	-0.07492401
107	0xbdc4d25f	-0.096104376
108	0xbd5fc4c1	-0.054631
109	0x3c5a237f	0.013314127
110	0x3d7be9bd	0.061502207
111	0x3e81764a	0.2528556
112	0xbead6a92	-0.3387037
113	0xbe37e36e	-0.17957851
114	0x3cab493f	0.02090895
115	0x3ab56a4b	0.0013840882
116	0x3c393e26	0.011306321
117	0x3db64bec	0.089012
118	0xbc52dec8	-0.012870498
119	0xbd0b1310	-0.033953726
120	0x3db8ceaf	0.09023797
121	0xbd364833	-0.04450245
122	0xbd86a6c0	-0.06574774
123	0xbdb53d89	-0.088496275
124	0x3cc2e9f8	0.023793206
125	0xbd06bb3e	-0.03289341
126	0x3cbb0b8b	0.022832653
127	0x3dbd8f8a	0.092558935
128	0xbe0556fb	-0.13021462
129	0x3bf07b72	0.0073389346
130	0xbbe2abe9	-0.006917466
131	0x3d413c79	0.04717681
132	0xbd36e6f7	-0.04465386
133	0x3bf61c10	0.0075106695
134	0x3dcfd671	0.10148323
135	0xbccd3c70	-0.025053233
136	0xbcadc303	-0.021211153
137	0x3c2b463e	0.010453759
138	0x3d9be6bd	0.07612369
139	0xbdda8259	-0.10669393
140	0x3c59bc96	0.013289591
141	0xbe02b5e9	-0.12764706
142	0xbdb7b885	-0.08970741
143	0x3d05edd2	0.032697506
144	0x3c727273	0.014797795
145	0x3dd54d9d	0.10415194
146	0xbbd831e0	-0.0065977424
147	0xbd866036	-0.065613195
148	0xbd4cc2ee	-0.049990587
149	0xbda9cc4a	-0.08290918
150	0xbddd7d37	-0.108148985
151	0xbd9ba3d1	-0.07599605
152	0xbdefd74f	-0.11710989
153	0x3de0c3be	0.10974835
154	0x3d3e9cc4	0.046536222
155	0xbb650505	-0.0034945619
156	0xbcd06d57	-0.025442762
157	0x3d1bcae5	0.038035292
158	0x3d3eeef3	0.0466146
159	0xbb231fa2	-0.002489068
160	0x3dcb72dd	0.09934018
161	0xbd829bf5	-0.06377403
162	0x3d31ed98	0.043439478
163	0x3dca0ea1	0.098660715
164	0xbdb6f4da	-0.089334205
165	0x3db4090e	0.087907895
166	0xbc43f386	-0.011959916
167	0xbd19e5ee	-0.037572794
168	0xbd72174c	-0.05910425
169	0xbda98221	-0.08276773
170	0x3d3bc8a3	0.04584564
171	0x3d78d693	0.06075151
172	0xbdad7370	-0.084692836
173	0xbd6a10c0	-0.05714488
174	0xbd845852	-0.06462158
175	0xbc305c7e	-0.010764239
176	0x3d56a14e	0.052399926
177	0x3de9d760	0.11418033
178	0x3de6a28d	0.11261473
179	0x3da0e61f	0.07856392
180	0xbb23373c	-0.0024904748
181	0x3dea5f8b	0.114440046
182	0xbdb8e1f1	-0.0902747
183	0x3d2774b7	0.040882792
184	0x3cfd0166	0.030884456
185	0xbbcaa90a	-0.006184702
186	0x3d405405	0.046955127
187	0x3d66aeae	0.05631893
188	0x3df9dfd6	0.122008964
189	0xbd0593c2	-0.032611616
190	0x3bf5ca14	0.007500896
191	0x3d203738	0.03911516
192	0xbdb9af02	-0.09066583
193	0xbdb0699b	-0.08613893
194	0x3ca7c00e	0.020477321
195	0xbda2a5b9	-0.07941765
196	0x3c3428ac	0.010996025
197	0xbd0f44ad	-0.034977604
198	0xbd11129e	-0.035418145
199	0xbd553733	-0.052054595
200	0x3e00436c	0.1252572
201	0x3d59ee2a	0.053205647
202	0x3cdfbf7e	0.02731299
203	0x3ded2fff	0.1158142
204	0xbd84da7f	-0.06486987
205	0x3da95abd	0.0826926
206	0xbd45e8f3	-0.04831786
207	0xbd928a1a	-0.07155247
208	0x3dab2d3d	0.08358238
209	0xbcf35122	-0.029701773
210	0x3d86b479	0.06577391
211	0x3d11f60f	0.03563505
212	0x3c0c09e4	0.00854728
213	0xbdc51143	-0.09622433
214	0xbcb28404	-0.021791466
215	0xbda3dfea	-0.080016926
216	0xbd1ccedf	-0.038283225
217	0x3de79577	0.11307805
218	0xbdedc40f	-0.11609661
219	0xbda380b9	-0.07983536
220	0xbde995dd	-0.11405537
221	0x3df71a08	0.12065512
222	0x3df27e2e	0.11840473
223	0xbc8467b1	-0.016162725
224	0xbc9d78d7	-0.01922266
225	0xbdf096ea	-0.117475346
226	0x3d3204dc	0.043461666
227	0x3d4feec2	0.050764807
228	0x3d277c48	0.04089001
229	0xbda9a2a1	-0.08282972
230	0xbe1d2adc	-0.15348381
231	0x3e069cb6	0.13145718
232	0xbdb82005	-0.08990482
233	0xbdb4a53c	-0.088205785
234	0x3d984fd8	0.07437104
235	0xbd04477f	-0.032294746
236	0xbda60233	-0.08105888
237	0xbdb7c430	-0.08972967
238	0x3c518896	0.012788912
239	0x3c2ebb9e	0.010664849
240	0xbdd3c6fc	-0.10340688
241	0x3dae2c4b	0.08504542
242	0xbd813754	-0.06309381
243	0x3d03462b	0.03204934
244	0xbdfd14fc	-0.12357518
245	0xbbb48129	-0.005508561
246	0xbc1f3d22	-0.009719165
247	0x3d8af68e	0.06785308
248	0xbddf8665	-0.109143056
249	0x3d6c3927	0.057671692
250	0xbd1870ea	-0.03721706
251	0xbc17f217	-0.009274027
252	0x3ca94974	0.020664908
253	0x3dec03ab	0.11524137
254	0xbda39887	-0.07988077
255	0xbc400e2b	-0.011722128

hyper_w1.bias f4 [128]
0	0xbe726f67	-0.23675309
1	0x3e611416	0.21980318
2	0x3ea4f052	0.322146
3	0xbea6b1da	-0.32557565
4	0x3eae4853	0.34039554
5	0x3e8b15ff	0.2716522
6	0xbe906de3	-0.28208837
7	0x3e816f87	0.252804
8	0xbe7220b8	-0.23645294
9	0xbeb96f1b	-0.3621758
10	0xbe01a126	-0.1265913
11	0xbe646995	-0.22305901
12	0x3eb2ab58	0.3489635
13	0xbea297ff	-0.3175659
14	0x3e8dc1aa	0.27686816
15	0x3e93abb6	0.28841943
16	0xbed11b85	-0.40841308
17	0x3ea930ea	0.3304513
18	0xbed95821	-0.4245005
19	0x3e94919f	0.2901735
20	0xbe8d5b12	-0.27608544
21	0x3e2120ec	0.15735215
22	0x3e9d37cd	0.30706635
23	0xbeb46618	-0.3523414
24	0xbec5e572	-0.38651615
25	0x3e94ab04	0.29036725
26	0xbead0453	-0.33792362
27	0xbed2b853	-0.41156253
28	0xbe9f1c62	-0.31076342
29	0xbee311bb	-0.44349465
30	0xbe8434df	-0.25821587
31	0x3e4ed9f3	0.20200329
32	0xbe8bb980	-0.27289963
33	0x3eb20c17	0.3477485
34	0xbeb33c7a	-0.35007077
35	0x3e9c54d9	0.30533484
36	0x3ea5a5d9	0.32353094
37	0xbe4ef7f5	-0.20211776
38	0xbe458063	-0.19287257
39	0xbe3c10d2	-0.18365791
40	0xbea35d93	-0.3190733
41	0xbea3aea3	-0.31969175
42	0xbeb23b23	-0.34810743
43	0xbeb43d05	-0.35202804
44	0xbe06596d	-0.1312005
45	0x3e6f43bd	0.23365684
46	0x3eaffc4d	0.34372178
47	0xbe5a4933	-0.21316986
48	0xbe4fe7ca	-0.20303264
49	0x3e7f5db8	0.24938095
50	0xbea67481	-0.3251076
51	0xbeaea9a2	-0.34113795
52	0xbea297a7	-0.31756327
53	0xbe86e4f3	-0.2634655
54	0x3ebe2da2	0.3714419
55	0xbe2c5895	-0.16830666
56	0x3e84ad44	0.2591344
57	0x3ebdfddd	0.37107745
58	0xbe74ca28	-0.23905241
59	0x3e51533f	0.20441912
60	0xbe88f93a	-0.26752645
61	0xbec0941a	-0.37612993
62	0x3e963f4f	0.29345176
63	0x3ead9aed	0.33907261
64	0xbea77ce9	-0.32712486
65	0x3e0d68eb	0.13809554
66	0x3e81512d	0.25257245
67	0x3ea47c39	0.32126024
68	0xbea05d09	-0.3132098
69	0xbeb37a6b	-0.35054335
70	0xbeb96d00	-0.36215973
71	0x3e751e8a	0.23937431
72	0xbe9644e6	-0.2934944
73	0xbe8e3644	-0.27775776
74	0xbe8eb02a	-0.27868778
75	0x3ed7b939	0.421335
76	0x3ebb42d8	0.36574435
77	0x3e72cfff	0.23712157
78	0xbe8e27c9	-0.2776473
79	0xbe1b9123	-0.15192084
80	0x3e9d6847	0.3074362
81	0x3e50b704	0.20382315
82	0x3ecabcc8	0.39597154
83	0x3e811496	0.25211018
84	0xbe9f4d4c	-0.3111366
85	0xbeb35671	-0.35026887
86	0x3de45c29	0.11150391
87	0xbe650313	-0.22364454
88	0xbe80d664	-0.25163567
89	0x3e2fde8f	0.17174743
90	0x3ebfc81d	0.37457362
91	0xbea80872	-0.32818943
92	0xbe8fb164	-0.28065026
93	0x3eb4797d	0.35248938
94	0xbe8f969a	-0.28044587
95	0x3e7ac306	0.24488458
96	0x3e433690	0.19063783
97	0xbe96bc51	-0.2944055
98	0x3eaf6069	0.34253243
99	0xbe90e3eb	-0.28298888
100	0xbeba8542	-0.36429793
101	0x3e71d4ba	0.23616305
102	0x3ea96563	0.33085164
103	0x3eb5da14	0.35517943
104	0x3e863922	0.26215464
105	0xbe5a753b	-0.21333782
106	0x3ea7b1a0	0.32752705
107	0xbecae73c	-0.39629543
108	0x3e87fe2f	0.26561114
109	0xbeaf9852	-0.342959
110	0xbe88bab8	-0.26704955
111	0x3bee72f5	0.0072768875
112	0xbec3341f	-0.38125703
113	0xbeb2da52	-0.3493219
114	0x3e43e023	0.1912847
115	0x3e32e751	0.17471053
116	0xbebcaafb	-0.36849198
117	0x3e13f43e	0.1444864
118	0xbe486629	-0.19570221
119	0xbe7f49ef	-0.24930547
120	0x3eb52a06	0.35383624
121	0x3e821d35	0.25412908
122	0xbe3d79f9	-0.1850356
123	0xbe80c8a0	-0.25153065
124	0xbe8ea8a7	-0.27863047
125	0x3e84dd15	0.25949922
126	0xbeb3e7bf	-0.35137746
127	0xbeb06b5e	-0.34456915

hyper_w2.weight f4 [32, 57]
0	0xbcde3786	-0.027126085
1	0xbdae1cc3	-0.085015796
2	0xbd4246eb	-0.047430914
3	0xbca757c5	-0.020427594
4	0x3d5e959a	0.05434189
5	0x3cfd81d4	0.030945696
6	0x3c11f3e0	0.008908242
7	0x3d909d21	0.0706122
8	0xbe04c3fc	-0.12965387
9	0xbdc6b70a	-0.09702881
10	0xbce9ce81	-0.028540852
11	0xbcbf320e	-0.023339298
12	0x3c754784	0.014970664
13	0xbd8258bc	-0.06364581
14	0xbdd90c8d	-0.10598097
15	0xbd735806	-0.059410118
16	0x3bb84be1	0.00562428
17	0xbdac5c18	-0.08416003
18	0xbcfa4ee6	-0.0305552
19	0x3db77c5e	0.08959268
20	0x3d923a4d	0.07140026
21	0x3b728a96	0.0037008873
22	0xbd91b40b	-0.071144186
23	0x3d1de4df	0.038548347
24	0xbdd14241	-0.10217715
25	0xbd5134a3	-0.05107559
26	0x3c6d46b2	0.014482187
27	0x3dba3922	0.090929285
28	0xbd90e6aa	-0.07075246
29	0x3dab2ac8	0.08357769
30	0xbde0fa64	-0.10985258
31	0xbdad3594	-0.08457485
32	0x3d54bdea	0.05193893
33	0x3d2a2397	0.041537847
34	0x3d864793	0.065566204
35	0x3d3e655a	0.046483375
36	0x3cefe813	0.029285466
37	0xbdaadec7	-0.08343273
38	0xbd7e4b1e	-0.062083356
39	0xbddff98f	-0.109362714
40	0x3db2bb53	0.087271355
41	0xbd6f0794	-0.058356836
42	0x3db1f901	0.08690072
43	0x3dc7e497	0.09760397
44	0x3dc87f81	0.097899444
45	0x3d48c049	0.049011502
46	0xbddf1171	-0.108919986
47	0x3dff6a85	0.12471489
48	0x3dae6263	0.085148595
49	0xbc56bba7	-0.013106263
50	0x3c05f7a7	0.008176721
51	0xbd4cf572	-0.050038762
52	0x3d86a478	0.06574339
53	0xbdaa2384	-0.08307555
54	0xbd313a19	-0.043268297
55	0x3d91f9d4	0.07127729
56	0x3dd815fc	0.10551068
57	0xbca86375	-0.020555237
58	0x3e181d23	0.14854865
59	0x3d4510fc	0.0481119
60	0x3cde9227	0.0271693
61	0x3d835740	0.06413126
62	0xbd400d10	-0.046887457
63	0x3c2ef058	0.01067742
64	0x3e1f8452	0.1557782
65	0xbd722631	-0.059118453
66	0xbd94d7d4	-0.072677284
67	0x3d873c6d	0.06603322
68	0x3d7fc3ea	0.062442698
69	0xbcfbfd0d	-0.030760312
70	0x3deb36d3	0.11485066
71	0xbcb7a94c	-0.022419594
72	0xbde063d6	-0.10956542
73	0xbdc4be60	-0.09606624
74	0xbd0ba499	-0.03409252
75	0xbe2887ff	-0.16458128
76	0xbd96c33d	-0.073614575
77	0xbd562c65	-0.05228843
78	0xbd83439d	-0.064093806
79	0x3e088f3a	0.13335887
80	0xbb708873	-0.0036702424
81	0xbdcd91d9	-0.10037584
82	0x3d83150d	0.064004995
83	0x3cc4a5e2	0.02400488
84	0xbe0d4830	-0.13797069
85	0xbd0e5bcc	-0.034755513
86	0xbe012d77	-0.12615
87	0xbd782076	-0.060577832
88	0x3d9d46e0	0.07679534
89	0xbd79dbe1	-0.06100071
90	0x3d443be5	0.047908682
91	0xbd93160f	-0.07181942
92	0x3c9eb89b	0.019375136
93	0xbdd80f55	-0.10549799
94	0x3d1997aa	0.037498154
95	0x3da5d3f7	0.0809707
96	0x3dadeaf9	0.08492083
97	0x3d429027	0.047500756
98	0xbbb6e97a	-0.005582032
99	0xbd6d557c	-0.057942852
100	0xbcbd2e92	-0.023093496
101	0xbc831717	-0.016002221
102	0xbcf6ec5f	-0.030142007
103	0xbc5f2d37	-0.01362162
104	0x3d29de8f	0.041472014
105	0xbd8a94f2	-0.0676669
106	0x3ce1da2d	0.027569855
107	0xbddc88d8	-0.107682884
108	0x3c994825	0.018711159
109	0x3dfa3ae9	0.122182675
110	0xbd63c487	-0.055607345
111	0xbe36ca01	-0.17850496
112	0x3e594163	0.2121635
113	0x3e12252a	0.1427199
114	0x3d01bd44	0.03167464
115	0xbc4b3be5	-0.012404417
116	0xbdcb8938	-0.09938282
117	0xbe015d87	-0.12633334
118	0xbd491a11	-0.049097124
119	0xbd1489c9	-0.036264215
120	0x3c1278b5	0.008939912
121	0x3d901d38	0.07036823
122	0xbcb5c6d4	-0.022189535
123	0xbdc4f906	-0.0961781
124	0xbe2783af	-0.16358827
125	0x3cf39e69	0.029738622
126	0xbd7b4e09	-0.061353717
127	0xbd3f567c	-0.046713337
128	0x3c75e616	0.01500847
129	0xbd852329	-0.06500847
130	0xbdf46d86	-0.119349524
131	0xbd9bab14	-0.0760099
132	0xbe30aeca	-0.17254177
133	0xbde21d7e	-0.110407814
134	0xbdd0bee1	-0.10192657
135	0xbe1ce26f	-0.15320753
136	0xbe27b29b	-0.16376726
137	0xbd9f257d	-0.07770822
138	0xbdb8662d	-0.090038635
139	0xbe088197	-0.13330685
140	0xbe1e81a5	-0.15479143
141	0xbd9c5e65	-0.07635192
142	0x3d9d939a	0.076941684
143	0x3dad5a58	0.08464497
144	0xbd2f300f	-0.04277044
145	0x3cfa6bf3	0.030569052
146	0xbddd9b63	-0.10820653
147	0xbc8bdeed	-0.017074073
148	0xbaf69948	-0.0018813992
149	0xbcdcfbed	-0.026975596
150	0xbe0fdc9d	-0.14049001
151	0x3d45dadb	0.04830442
152	0xbcab19a0	-0.020886242
153	0xbddf56ff	-0.10905265
154	0xbe1804d6	-0.14845595
155	0xbe22db4e	-0.1590397
156	0xbb253e9c	-0.002521432
157	0xbcb2b194	-0.021813191
158	0xbe0cfe72	-0.13768938
159	0x3d61b37a	0.055102803
160	0xbc227fec	-0.009918194
161	0xbe2f8790	-0.17141557
162	0x3d43eaa5	0.047831196
163	0x3c9cb351	0.019128473
164	0xbc1a07ed	-0.009401304
165	0xbc01272a	-0.007882873
166	0xbd0402f1	-0.032229368
167	0xbe87c53f	-0.26517674
168	0xbe07e4c0	-0.13270855
169	0xbdeb374b	-0.11485156
170	0xbdf3ed96	-0.1191055
171	0x3e37516d	0.17902155
172	0xbd9c37ff	-0.07627868
173	0x3e10d50f	0.14143775
174	0x3e1b678d	0.1517622
175	0x3d8bef20	0.06832719
176	0x3e07f585	0.13277252
177	0xbd7d6893	-0.061867308
178	0xbd2df4f2	-0.042469926
179	0x3e00355e	0.12520358
180	0xbd1c4d8f	-0.038159903
181	0x3dbf1ef5	0.093320765
182	0x3d7589f7	0.059946027
183	0x3e04610b	0.12927644
184	0x3e1e6fb7	0.15472303
185	0x3d733f57	0.059386577
186	0x3e325dd8	0.17418611
187	0x3df40a8b	0.119160734
188	0x3dc1da96	0.0946552
189	0x3dfa534d	0.122229196
190	0xbd7b389c	-0.061333284
191	0x3d8985ca	0.06714971
192	0x3d3db211	0.046312395
193	0x3e0c260b	0.13686387
194	0x3deb92ff	0.11502647
195	0x3e298e6b	0.16558234
196	0x3d99bff6	0.07507317
197	0x3df01f8f	0.11724769
198	0x3e22d004	0.15899664
199	0x3df32cad	0.118737556
200	0xbc485d63	-0.012229296
201	0x3e119681	0.14217569
202	0x3dc276c0	0.09495306
203	0xbd35154f	-0.044209775
204	0xbd831f4c	-0.06402454
205	0x3dc973cc	0.098365396
206	0xbd9e2b13	-0.077230595
207	0xbd174204	-0.03692819
208	0x3b6afd59	0.0035856573
209	0x3a34ea8d	0.0006901406
210	0x3d618328	0.05505672
211	0xbcf61677	-0.030040009
212	0x3e487709	0.19576658
213	0x3e4ca076	0.19983086
214	0x3e3b561d	0.18294568
215	0x3e10051e	0.14064452
216	0x3d71b2cd	0.05900841
217	0xbb5f32bd	-0.0034057342
218	0x3db6ad63	0.0891979
219	0xbd0ddd79	-0.03463504
220	0x3bb90e42	0.0056474516
221	0xbd45b15d	-0.04826485
222	0x3e264ca5	0.16240175
223	0x3e08a523	0.13344245
224	0x3e6f65cb	0.23378675
225	0x3e8d5874	0.27606547
226	0x3e347e71	0.17626359
227	0x3e035d86	0.12828645
228	0xbcba506e	-0.02274343
229	0xbdf2584f	-0.1183325
230	0x3cf45b7d	0.029828781
231	0x3dd3a2af	0.10333764
232	0x3d4bd7a7	0.04976621
233	0xbda06217	-0.07831209
234	0x3d9e8759	0.07740659
235	0x3ce8d0e1	0.028419914
236	0x3cfd4998	0.030918881
237	0xbde84663	-0.1134155
238	0x3c41abd0	0.011820748
239	0x3d231050	0.03981048
240	0x3c8ccd7d	0.017187828
241	0x3c9ced3e	0.019156095
242	0x3b3f7193	0.0029211983
243	0xbcc1d17c	-0.02365946
244	0xbc760525	-0.015015875
245	0x3dd10502	0.10206033
246	0x3dff1c38	0.12456554
247	0x3d66347b	0.056202393
248	0xbc696534	-0.01424532
249	0x3d2bd19e	0.041947953
250	0x3ce5541c	0.027994208
251	0xbe174e89	-0.14776053
252	0xbd57f0f5	-0.05272003
253	0xbdf97f6c	-0.12182507
254	0xbd7a8f90	-0.061172068
255	0xbe0d18a5	-0.13778932

hyper_w2.bias f4 [32]
0	0x3e98f644	0.29875386
1	0xbe7ebcb7	-0.24876676
2	0xbe9d8f6e	-0.3077349
3	0x3e8b8a8c	0.2725414
4	0xbebf34aa	-0.37344867
5	0x3ec2fd46	0.38083857
6	0x3ec44acb	0.38338313
7	0x3e78a1a7	0.24280415
8	0xbe6f202b	-0.23352115
9	0x3e98950a	0.29801208
10	0x3e49cef8	0.19707859
11	0x3eaa298d	0.33234826
12	0x3e828589	0.25492504
13	0x3eb84115	0.35987154
14	0x3e9d21ce	0.30689853
15	0xbe4725a1	-0.19447948
16	0x3e8e8de9	0.27842644
17	0x3e8658f7	0.2623975
18	0xbea1e28e	-0.3161816
19	0x3e843bec	0.25826967
20	0x3e82ea41	0.25569347
21	0xbec902c2	-0.39259917
22	0xbe0d67bd	-0.13809104
23	0xbed59857	-0.4171779
24	0x3e94162c	0.28923166
25	0xbec17c17	-0.37789986
26	0x3ea6aa88	0.3255198
27	0x3e0d42ab	0.13794963
28	0x3e9a1bb1	0.30099252
29	0xbeb26c18	-0.34848094
30	0x3e8caa6d	0.27473775
31	0x3e863bf5	0.2621762

hyper_b1.weight f4 [32, 57]
0	0xbcfee640	-0.031115651
1	0xbd9f69ae	-0.07783829
2	0x3cfbe13d	0.03074705
3	0xbcf6874e	-0.030093815
4	0x3de03d5a	0.10949202
5	0x3de8dd91	0.113703854
6	0x3da8e48b	0.08246716
7	0xbda1bcac	-0.078973144
8	0x3d9b7322	0.07590319
9	0xbd8eb38e	-0.06967841
10	0x3cdd7782	0.027034525
11	0x3d06ab45	0.03287818
12	0x3e1b0dea	0.15142027
13	0x3e0f66c7	0.1400405
14	0xbdee4f53	-0.11636224
15	0x3aabfebc	0.0013122181
16	0xbdbe530f	-0.09293186
17	0x3d3e822a	0.046510853
18	0x3db7fe8b	0.08984097
19	0xbd0f9f77	-0.035064187
20	0xbd5237c3	-0.05132271
21	0xbdda352e	-0.106546745
22	0xbd25c0f3	-0.040467214
23	0x3d6aa2ca	0.057284154
24	0x3dea7098	0.11447257
25	0xbda051cc	-0.078281015
26	0xbc9ad1c5	-0.018898854
27	0x3dd6dc58	0.10491246
28	0x3e082f90	0.13299394
29	0x3d0df0b7	0.03465339
30	0x3df89c1a	0.12139149
31	0x3c00adcb	0.0078539355
32	0xbd2267c2	-0.039649732
33	0x3dea8924	0.11451939
34	0x3c93e4db	0.018053463
35	0x3d39786b	0.045280855
36	0x3e0f29a6	0.13980731
37	0x3e25a720	0.16177034
38	0x3dcd7c21	0.10033441
39	0xbc03af37	-0.00803738
40	0x3d80fd2c	0.06298289
41	0x3e374753	0.17898302
42	0x3ce812bc	0.028329246
43	0x3e26b033	0.16278152
44	0x3dce4fb9	0.100738
45	0x3dc8b600	0.09800339
46	0x3e00961f	0.12557267
47	0xbd511797	-0.051047888
48	0xbc6661e8	-0.014061429
49	0x3db7c8c3	0.08973839
50	0x3deb5e7d	0.114926316
51	0xbda295b3	-0.07938709
52	0x3e24753c	0.16060346
53	0xbd798cb9	-0.06092522
54	0xbcc7eccc	-0.024404906
55	0x3e7d0764	0.2470985
56	0x3d9e8e12	0.077419415
57	0x3d69fcf4	0.057126
58	0xbc8d1d4d	-0.017225886
59	0x3d6da24a	0.0580161
60	0xbd4e3dae	-0.05035179
61	0x3c7d2f1b	0.015453125
62	0xbd737501	-0.059437755
63	0xbdd1df78	-0.102477014
64	0xbd915528	-0.070963204
65	0x3db76b49	0.0895601
66	0x3bb2da24	0.0054581333
67	0x3d69ae05	0.057050724
68	0x3df9ca5f	0.12196802
69	0xbd28df40	-0.041228533
70	0xbdd9e420	-0.106392145
71	0xbe16047e	-0.14650151
72	0x3d9f7329	0.07785637
73	0x3d851b4f	0.06499349
74	0x3e03b4ac	0.1286189
75	0xbe0baa5c	-0.13639206
76	0x3d9704e5	0.073739804
77	0x3e037785	0.12838562
78	0xbdcdfcf4	-0.100580126
79	0xbdc124e4	-0.094308645
80	0x3ba1ad73	0.004934007
81	0xbca574ee	-0.020197358
82	0x3cc901d1	0.024536999
83	0x3cf0e1cc	0.029404543
84	0x3dcd925d	0.10037682
85	0x3d2e2123	0.04251207
86	0x3dd56d9d	0.10421298
87	0x3dd52a07	0.10408407
88	0x3d24cbb1	0.040233318
89	0xbdfa3078	-0.12216276
90	0x3d8479df	0.064685576
91	0xbd38a049	-0.045074735
92	0x3ce518e9	0.02796598
93	0x3d537274	0.051622823
94	0xbca8bc09	-0.020597475
95	0xbddbe155	-0.10736338
96	0x3db59d7b	0.08867928
97	0xbda08b2c	-0.07839045
98	0x3dc0aa83	0.094075225
99	0x3cabcfad	0.020973051
100	0xbd5df5a2	-0.05418933
101	0xbdc10059	-0.094238944
102	0xbc95bb60	-0.018277824
103	0xbd959f53	-0.07305779
104	0xbd83d7ea	-0.06437667
105	0x3d7ebb5d	0.062190402
106	0x3df7cd8f	0.12099754
107	0xbd92ab1c	-0.07161543
108	0xbd2ef051	-0.042709652
109	0xbd8f9f30	-0.070127845
110	0xbd7f3961	-0.06231058
111	0x3da8e596	0.08246915
112	0xbdca2572	-0.098704234
113	0xbe140d37	-0.14458166
114	0x3c110054	0.008850176
115	0xbd63d735	-0.05562516
116	0xbe33302f	-0.1749885
117	0xbc93fa3b	-0.018063655
118	0xbbd45d39	-0.0064808396
119	0xbe16ced3	-0.14727335
120	0xbd48c59f	-0.04901659
121	0xbdada174	-0.0847806
122	0xbe01e3e2	-0.12684587
123	0x3d6f5dfb	0.058439236
124	0xbd7739d7	-0.060357895
125	0xbe1d34bf	-0.15352152
126	0xbda30c62	-0.07961346
127	0xbde5cbcc	-0.11220512
128	0xbe17ba83	-0.14817242
129	0x3d6826e7	0.056677725
130	0x3d9ea3c4	0.077460796
131	0xbdc00a22	-0.09376933
132	0xbdad99d5	-0.08476607
133	0xbdc27db0	-0.09496629
134	0xbdf2c88b	-0.11854657
135	0xbdd49c6c	-0.103813976
136	0x3dab0344	0.08350232
137	0xbc31346d	-0.010815722
138	0x3d99ed3e	0.075159535
139	0x3c9ba73f	0.019000648
140	0xbe207a69	-0.15671696
141	0xbcf1fa5e	-0.02953833
142	0x3c2cb47c	0.010541078
143	0xbe3720e2	-0.17883638
144	0xbe2ddbc9	-0.16978373
145	0x3d8a285d	0.0674598
146	0x3d370c09	0.044689212
147	0x3d497e72	0.049192853
148	0x3d61a3f3	0.055087995
149	0xbbf2858a	-0.007401173
150	0xbdee5f86	-0.116393134
151	0xbda137c7	-0.07871967
152	0x3b282bfb	0.002566098
153	0xbde1a05e	-0.11016916
154	0xbb9950ea	-0.004678835
155	0x3d137059	0.035995815
156	0xbe2b1b30	-0.1670959
157	0xbde7c9d4	-0.113177925
158	0xbd6f7a65	-0.058466334
159	0xbce263fc	-0.027635567
160	0x3d50c35a	0.05096755
161	0x3d754a5d	0.05988537
162	0xbdc22476	-0.094796106
163	0xbdd8d2bb	-0.10587069
164	0x3d2f0b8c	0.04273562
165	0x3d7d61aa	0.061860718
166	0x3d1286ec	0.035773203
167	0x3cb76b13	0.022389924
168	0xbd5765d1	-0.052587334
169	0x3d4b9b0d	0.049708415
170	0xbc929ef2	-0.017898057
171	0x3cb24d79	0.021765457
172	0xbe38ded8	-0.18053758
173	0xbe226b4f	-0.15861247
174	0xbdea6639	-0.11445279
175	0xbd7820a3	-0.060578
176	0xbe24aa3b	-0.16080563
177	0xbd8713fa	-0.06595607
178	0x3b949e4c	0.004535472
179	0xbca7ad1f	-0.020468293
180	0xbdca3d0d	-0.09874926
181	0x3a2aa717	0.00065098837
182	0xbe16b469	-0.14717259
183	0xbd6dc8c4	-0.058052793
184	0x3d64427c	0.055727467
185	0xbdd2b2da	-0.102880195
186	0xbb643ff5	-0.003482816
187	0x3d55a627	0.05216041
188	0xbe1deb4a	-0.15421787
189	0xbe398c9f	-0.18120049
190	0xbdeb4f0e	-0.11489688
191	0xbde7a1c9	-0.11310155
192	0xbdb1e8c4	-0.08686975
193	0x3d076e68	0.033064276
194	0x3cc081d0	0.0234994
195	0x3cf840bd	0.030304307
196	0xbc9c7802	-0.019100193
197	0xbd026eba	-0.03184388
198	0xbe21e05b	-0.15808241
199	0xbda63c14	-0.08116928
200	0x3ca4e2cb	0.020127675
201	0xbd424c79	-0.04743621
202	0xbd88b091	-0.06674302
203	0xbd69b32a	-0.05705563
204	0xbe34b7d3	-0.17648248
205	0xbe25cef2	-0.16192225
206	0xbe5409b9	-0.20706834
207	0x3c857b39	0.016294109
208	0xbe24d2f9	-0.16096105
209	0xbe08cb70	-0.13358855
210	0xbd3003b7	-0.042972293
211	0xbe17d8c9	-0.1482879
212	0xbe05d216	-0.13068423
213	0xbe077f98	-0.13232267
214	0xbdbfc071	-0.09362877
215	0xbcfa245e	-0.03053492
216	0xbdec2edb	-0.115323745
217	0x3d1785eb	0.03699295
218	0xbd60624f	-0.054781254
219	0xbd841772	-0.06449784
220	0xbe08a6f1	-0.13344933
221	0xbddf604e	-0.109070405
222	0x3d9b9c8f	0.075982206
223	0x3da8538f	0.082190625
224	0x3d95bf90	0.07311928
225	0xbdb04f30	-0.08608854
226	0x3d87ca03	0.066303276
227	0x3d364846	0.04450252
228	0x3dcc7850	0.09983885
229	0xbbce9117	-0.006303917
230	0xbdc208d7	-0.09474342
231	0x3cfb3756	0.030666035
232	0x3d99a79d	0.07502673
233	0x3dd5ee7d	0.10445879
234	0xbdbf49d3	-0.09340253
235	0xbc0f5306	-0.008747822
236	0xbdfd5c8c	-0.123711675
237	0x3de586f0	0.11207378
238	0x3df20368	0.11817056
239	0xbcfc2f4b	-0.03078427
240	0x3d8e25c7	0.06940799
241	0x3dfb8bb9	0.12282509
242	0xbdf155ed	-0.11783967
243	0xbdc63ee6	-0.09679966
244	0x3dc5423d	0.096317746
245	0xbdc442a3	-0.095830224
246	0xbdf4de83	-0.11956503
247	0xbc7c8d99	-0.015414619
248	0x3bdd9be0	0.0067629665
249	0x3dcadce9	0.099054165
250	0x3dbb5cd8	0.09148568
251	0xbb4984bc	-0.0030749282
252	0xbdf72894	-0.120682865
253	0x3c97782f	0.018489925
254	0xbd9c9ac7	-0.07646709
255	0xbb952861	-0.0045519327

hyper_b1.bias f4 [32]
0	0x3e495bd0	0.1966393
1	0x3eba7500	0.3641739
2	0x3e6c6545	0.23085506
3	0x3d8c3f46	0.06848006
4	0x3e6853d6	0.22688231
5	0x3e379e26	0.17931423
6	0x3e8449ee	0.25837654
7	0x3e8b26a1	0.2717791
8	0x3e5a32fb	0.2130851
9	0x3e2b425b	0.16724531
10	0x3e601df7	0.2188643
11	0x3e4471df	0.19184063
12	0x3eadd6a3	0.33952817
13	0x3e6473e8	0.2230984
14	0x3e11fd3e	0.1425676
15	0x3e15eeeb	0.14641921
16	0x3e82f551	0.25577787
17	0x3e4d2260	0.20032644
18	0x3ed0e07a	0.40796262
19	0x3e4d1966	0.2002922
20	0x3e398722	0.18117955
21	0x3ddad924	0.106859475
22	0x3e43b5d4	0.1911233
23	0x3e5d2da4	0.21599442
24	0x3e9bf028	0.30456662
25	0x3db498c6	0.08818202
26	0x3eb343a4	0.35012543
27	0x3e9d5156	0.30726117
28	0x3e1c3844	0.15255839
29	0x3e6d3d34	0.23167878
30	0x3e9079ba	0.2821787
31	0x3e96a360	0.2942152

hyper_b2.0.weight f4 [32, 57]
0	0xbcd6cc70	-0.02622053
1	0xbcfbfaf6	-0.030759316
2	0xbd0a7097	-0.03379878
3	0x3db8d276	0.09024517
4	0xbdba0639	-0.09083218
5	0xbd1b26ff	-0.037878986
6	0xbc09c666	-0.008409118
7	0x3d9db4f5	0.077005304
8	0xbb81be47	-0.0039594504
9	0xbdac9d28	-0.08428413
10	0xbd274d9e	-0.040845506
11	0x3dcb22c9	0.09918744
12	0x3dc4e8b9	0.09614701
13	0xbca37c8e	-0.019956853
14	0x3ca3c441	0.019991042
15	0xbd8da825	-0.06916837
16	0x3e1a3d9e	0.15062568
17	0x3dcf2b7c	0.10115716
18	0x397f45ee	0.00024344746
19	0xbd3ee28e	-0.046602778
20	0x3dc27dea	0.094966725
21	0xbd4903ed	-0.04907601
22	0xbd6298a9	-0.05532137
23	0xbe6457fb	-0.22299187
24	0xbc98b35d	-0.018640215
25	0x3e02eef2	0.12786463
26	0x3cff9712	0.031199966
27	0x3cc93bd3	0.02456466
28	0x3bf6ca07	0.0075314078
29	0xbddd0e4f	-0.10793745
30	0xbd889533	-0.066690825
31	0x3d4af1b8	0.049546927
32	0xbdca66fb	-0.09882923
33	0x3d7bd36c	0.061480924
34	0x3dd75a88	0.10515314
35	0x3da12844	0.07869008
36	0xbe2d045b	-0.16896193
37	0xbde214b7	-0.11039107
38	0x3e2ca5a6	0.16860065
39	0xbde70000	-0.11279297
40	0x3da756af	0.081708305
41	0x3d294518	0.04132566
42	0xbd8740aa	-0.066041306
43	0xbdb3d934	-0.087816626
44	0xbd9eb97b	-0.07750221
45	0xbd683ba1	-0.05669749
46	0xbb5534f8	-0.0032532793
47	0x3cd33bb3	0.025785303
48	0x3c743427	0.014905012
49	0x3dee8d01	0.11647988
50	0x3c98deda	0.018660951
51	0x3c8f2888	0.017475381
52	0x3deca3cd	0.1155468
53	0x3d4badc1	0.04972625
54	0x3c1f3e3c	0.009719428
55	0x3ce2c486	0.0276816
56	0x3c8157b2	0.015788887
57	0x3e3e4f1a	0.18584862
58	0x3d2dbb3f	0.0424149
59	0x3d33d97c	0.04390858
60	0x3e812f25	0.2523128
61	0x3e20df79	0.15710248
62	0x3e371ce0	0.17882109
63	0x3e70205c	0.23449844
64	0x3d70ce52	0.058790512
65	0x3e5c2934	0.21500093
66	0x3e4aa1d2	0.19788292
67	0x3e108b91	0.1411574
68	0x3d94dee5	0.07269076
69	0x3dc10e59	0.09426565
70	0x3d8796d3	0.06620564
71	0x3e5663ac	0.2093646
72	0x3deba5d8	0.115062416
73	0x3e622359	0.22083797
74	0x3d23e332	0.040011592
75	0x3e1873f8	0.14887989
76	0x3e3a05c7	0.18166266
77	0x3d04ad64	0.03239192
78	0x3def106d	0.11673055
79	0x3e2f24e8	0.17103922
80	0x3e1bc376	0.15211281
81	0x3da6264c	0.08112773
82	0x3e1757d2	0.14779595
83	0x3e7a1d56	0.24425253
84	0x3e69a91e	0.2281842
85	0x3e66985e	0.22519061
86	0x3e1e5348	0.15461457
87	0x3e627c3a	0.22117701
88	0x3dbc8b94	0.0920631
89	0x3db306c8	0.08741528
90	0x3d3bfd67	0.04589596
91	0x3d7d2f59	0.061812732
92	0x3e52b3e7	0.2057644
93	0x3d44bc32	0.04803104
94	0x3d8f6bf3	0.070030116
95	0x3dbad7a7	0.09123164
96	0x3dea33a5	0.11435632
97	0x3e10f693	0.1415656
98	0x3dbef2c0	0.09323645
99	0x3e3ad4a5	0.1824518
100	0x3e613ee7	0.21996652
101	0x3da393b2	0.07987155
102	0x3d015fc9	0.03158549
103	0x3e92b3c3	0.28652772
104	0x3dc7ab16	0.09749429
105	0x3e87a418	0.2649238
106	0x3e88f778	0.26751304
107	0x3da77535	0.08176652
108	0x3e0902d4	0.13379985
109	0x3dd5123a	0.10403867
110	0x3e7d4953	0.24735002
111	0x3e8571ea	0.26063472
112	0x3ea8b1fd	0.32948294
113	0x3e675fc0	0.2259512
114	0xbd1657fa	-0.036704995
115	0x3d97c0d8	0.07409829
116	0x3db3588d	0.08757124
117	0x3dbb975c	0.09159729
118	0x3dac5bba	0.08415933
119	0x3c871719	0.016490506
120	0x3dca2156	0.098696396
121	0xbd97b199	-0.07406921
122	0xbd9b7c35	-0.0759205
123	0xbc3a9d45	-0.011390035
124	0x3ccf7dd6	0.025328558
125	0x3d1aa44d	0.037754346
126	0x3d80f273	0.062962435
127	0x3dc7ae00	0.09749985
128	0xbd7e0517	-0.062016573
129	0xbcd3c821	-0.025852265
130	0xbc5a21a5	-0.013313686
131	0xbc1db027	-0.0096245175
132	0xbcf20023	-0.02954108
133	0x3d90be63	0.070675634
134	0x3dcc3e7d	0.09972856
135	0x3d9f72b9	0.077855535
136	0x3dbe48ab	0.09291204
137	0x3cf70385	0.030153045
138	0x3dc664a6	0.09687166
139	0x3c9b33de	0.01894563
140	0x3c826a15	0.015919724
141	0xbdc4c9b2	-0.09608783
142	0xbd389da3	-0.04507221
143	0x3cbaff31	0.022826763
144	0x3ce7adb0	0.028281063
145	0x3da5ad49	0.08089692
146	0xbd616a67	-0.055033114
147	0xbd66b54e	-0.05632525
148	0x3cfdbd0b	0.030973932
149	0x3e052894	0.1300376
150	0xbd07b35d	-0.03313004
151	0x3d991fa5	0.07476739
152	0xbd8cb6c4	-0.06870797
153	0x3cabbfda	0.020965505
154	0xbde989be	-0.11403225
155	0xba8984ff	-0.0010491906
156	0x3e07b41e	0.13252303
157	0x3da7318f	0.081637494
158	0x3d1db942	0.038506754
159	0x3d102cd0	0.035198987
160	0x3c639ef9	0.0138928825
161	0xbd99be21	-0.07506967
162	0xbbf139de	-0.0073616346
163	0x3dbab8ce	0.0911728
164	0x3e00cefa	0.12578955
165	0xbddb5f4a	-0.10711534
166	0xbce3a728	-0.027789667
167	0x3d03cfdf	0.032180663
168	0x3d15183a	0.036400057
169	0x3c8743df	0.016511856
170	0xbc16b2e0	-0.009197921
171	0x3db50d6a	0.08840449
172	0x3e252739	0.16128244
173	0x3e399670	0.18123794
174	0x3e783142	0.2423754
175	0x3dc1fa80	0.09471607
176	0x3e3f1297	0.18659435
177	0x3e432d78	0.19060314
178	0x3df0d2f4	0.11758986
179	0x3e2d74b3	0.16939048
180	0x3e151db7	0.14562117
181	0x3d67867c	0.05652474
182	0x3e0754b9	0.13215913
183	0x3d8d608b	0.0690318
184	0x3cbc4779	0.0229833
185	0x3e0782e4	0.13233525
186	0x3d985928	0.0743888
187	0x3d60ecde	0.054913394
188	0x3e89a8cf	0.26886603
189	0x3e057d2d	0.13036032
190	0x3e92186b	0.28534254
191	0x3dbee519	0.09321041
192	0x3e7b04cb	0.24513547
193	0x3e16827b	0.14698212
194	0x3d05ed1a	0.03269682
195	0x3d852682	0.065014854
196	0x3e22516b	0.15851371
197	0x3e705de3	0.23473315
198	0x3e24fb0b	0.1611139
199	0x3cb0c805	0.021579752
200	0x3e386333	0.18006591
201	0x3e80223e	0.25026125
202	0x3e1d8747	0.15383635
203	0x3d0690cf	0.032852944
204	0x3dccea16	0.10005586
205	0x3e075857	0.13217293
206	0x3db40169	0.087893315
207	0x3c88feb2	0.01672301
208	0x3e1034d6	0.14082655
209	0x3dde77ef	0.10862719
210	0x3d96579b	0.07340928
211	0x3e294fa3	0.16534285
212	0x3df8c284	0.12146476
213	0x3e897ac6	0.2685148
214	0x3d88e2c9	0.06683881
215	0x3e26ed8a	0.16301551
216	0x3da83be5	0.08214549
217	0x3e877d85	0.2646295
218	0x3da938c4	0.0826278
219	0x3e59c494	0.21266395
220	0x3cc3bc6f	0.023893563
221	0x3e270724	0.16311318
222	0x3d4e344a	0.050342835
223	0x3dffb0c6	0.12484889
224	0x3e9d50b0	0.30725622
225	0x3e419ac6	0.18906698
226	0x3dfc4ee0	0.12319732
227	0x3e0e97fc	0.13925165
228	0x3d7f666d	0.06235354
229	0x3d1501d0	0.03637868
230	0x3e090a45	0.13382824
231	0x3d3ec774	0.046576932
232	0x3ce1222e	0.027482118
233	0x3d925bc5	0.0714641
234	0x3da691a0	0.081332445
235	0x3dbf289c	0.093339175
236	0xbd4c8e9f	-0.0499407
237	0x3dc585bf	0.09644651
238	0x3c37fbce	0.0112294685
239	0xbde028c7	-0.10945278
240	0xbd922b7d	-0.07137201
241	0x3ce7140e	0.028207805
242	0x3d3f785a	0.046745636
243	0x3db5cdb8	0.08877128
244	0x3d7b35fd	0.061330784
245	0x3b342d69	0.0027492887
246	0x3d31b924	0.043389454
247	0x3cfe6cf0	0.031057805
248	0xbd263299	-0.040575597
249	0x3c8c10dd	0.017097885
250	0xbd9b03a0	-0.07569051
251	0xbc311999	-0.010809326
252	0x3cb717d6	0.022350233
253	0x3d2726db	0.04080854
254	0xbd287b8a	-0.04113344
255	0xbcaca4bc	-0.021074645

hyper_b2.0.bias f4 [32]
0	0xbe35c4a3	-0.17750792
1	0x3eaf7a25	0.34272876
2	0xbe8c89bc	-0.27448833
3	0x3efb918a	0.49134475
4	0xbe6d0d3b	-0.23149578
5	0xbe410bab	-0.18852107
6	0x3ee179b0	0.44038153
7	0xbba43ad2	-0.0050118947
8	0x3e950e39	0.29112414
9	0x3b82ee37	0.0039956826
10	0x3ea979fa	0.33100873
11	0x3ebc2aa3	0.3675128
12	0x3eeffc21	0.46872047
13	0xbc0904f4	-0.008362997
14	0xbe70ace2	-0.2350345
15	0xbd7ecbf5	-0.062206227
16	0xbe0f7691	-0.14010073
17	0x3b90a3f4	0.004414076
18	0xbd68898d	-0.056771804
19	0x3eb12dd1	0.34605268
20	0xbdaee8d5	-0.08540503
21	0xbd018ad6	-0.031626545
22	0x3ccdb00d	0.025108362
23	0xbe5d240b	-0.2159578
24	0xbe095869	-0.13412632
25	0x3eeb4327	0.4594967
26	0x3ebb8d59	0.36631277
27	0x3e96e063	0.29468068
28	0x3eaa907a	0.33313352
29	0x3d501251	0.050798718
30	0x3e86ddde	0.26341146
31	0xbe871e1d	-0.26390162

hyper_b2.2.weight f4 [1, 32]
0	0xbe9f8292	-0.31154305
1	0x3e724c83	0.23662
2	0xbdd6e2e4	-0.10492495
3	0x3e9ee605	0.31034866
4	0xbe364e1b	-0.17803232
5	0xbe8f51cc	-0.27992094
6	0x3e798cb0	0.24370074
7	0xbed9a6ef	-0.42510173
8	0x3e631273	0.22175007
9	0xbe8cfb21	-0.27535346
10	0x3e93077b	0.28716645
11	0x3ea73289	0.32655743
12	0x3e77386e	0.2414262
13	0xbe05c50d	-0.1306345
14	0xbeb75fab	-0.35815176
15	0xbece02e9	-0.40236595
16	0xbebb0454	-0.3652674
17	0xbe9d4522	-0.30716807
18	0xbf162a20	-0.5865803
19	0x3e7e4878	0.24832332
20	0xbef16b74	-0.47152293
21	0xbdacb6d7	-0.084333114
22	0xbe003857	-0.12521492
23	0xbed9e026	-0.42553824
24	0xbf07ad4f	-0.5299882
25	0x3ea81bf8	0.32833838
26	0x3ec069e5	0.3758079
27	0x3e7da09c	0.24768299
28	0x3e42b297	0.19013439
29	0xbe4053d2	-0.18781975
30	0x3e1a37a1	0.15060283
31	0xbe7b2c27	-0.24528562
